{"format": "graph-model", "generatedBy": "2.18.0", "convertedBy": "TensorFlow.js Converter v4.22.0", "signature": {"inputs": {"input_layer_1": {"name": "input_layer_1:0", "dtype": "DT_FLOAT", "tensorShape": {"dim": [{"size": "-1"}, {"size": "224"}, {"size": "224"}, {"size": "3"}]}}}, "outputs": {"output_0": {"name": "Identity:0", "dtype": "DT_FLOAT", "tensorShape": {"dim": [{"size": "-1"}, {"size": "12"}]}}}}, "modelTopology": {"node": [{"name": "StatefulPartitionedCall/sequential_1/mobilenetv2_1.00_224_1/Conv1_1/convolution/Cast", "op": "Const", "attr": {"dtype": {"type": "DT_HALF"}, "value": {"tensor": {"dtype": "DT_HALF", "tensorShape": {"dim": [{"size": "3"}, {"size": "3"}, {"size": "3"}, {"size": "32"}]}}}}}, {"name": "StatefulPartitionedCall/sequential_1/mobilenetv2_1.00_224_1/bn_Conv1_1/batchnorm/mul", "op": "Const", "attr": {"dtype": {"type": "DT_FLOAT"}, "value": {"tensor": {"dtype": "DT_FLOAT", "tensorShape": {"dim": [{"size": "32"}]}}}}}, {"name": "StatefulPartitionedCall/sequential_1/mobilenetv2_1.00_224_1/bn_Conv1_1/batchnorm/sub", "op": "Const", "attr": {"dtype": {"type": "DT_FLOAT"}, "value": {"tensor": {"dtype": "DT_FLOAT", "tensorShape": {"dim": [{"size": "32"}]}}}}}, {"name": "StatefulPartitionedCall/sequential_1/mobilenetv2_1.00_224_1/expanded_conv_depthwise_1/depthwise/Cast", "op": "Const", "attr": {"value": {"tensor": {"dtype": "DT_HALF", "tensorShape": {"dim": [{"size": "3"}, {"size": "3"}, {"size": "32"}, {"size": "1"}]}}}, "dtype": {"type": "DT_HALF"}}}, {"name": "StatefulPartitionedCall/sequential_1/mobilenetv2_1.00_224_1/expanded_conv_depthwise_BN_1/batchnorm/mul", "op": "Const", "attr": {"value": {"tensor": {"dtype": "DT_FLOAT", "tensorShape": {"dim": [{"size": "32"}]}}}, "dtype": {"type": "DT_FLOAT"}}}, {"name": "StatefulPartitionedCall/sequential_1/mobilenetv2_1.00_224_1/expanded_conv_depthwise_BN_1/batchnorm/sub", "op": "Const", "attr": {"value": {"tensor": {"dtype": "DT_FLOAT", "tensorShape": {"dim": [{"size": "32"}]}}}, "dtype": {"type": "DT_FLOAT"}}}, {"name": "StatefulPartitionedCall/sequential_1/mobilenetv2_1.00_224_1/expanded_conv_project_1/convolution/Cast", "op": "Const", "attr": {"value": {"tensor": {"dtype": "DT_HALF", "tensorShape": {"dim": [{"size": "1"}, {"size": "1"}, {"size": "32"}, {"size": "16"}]}}}, "dtype": {"type": "DT_HALF"}}}, {"name": "StatefulPartitionedCall/sequential_1/mobilenetv2_1.00_224_1/expanded_conv_project_BN_1/batchnorm/mul", "op": "Const", "attr": {"dtype": {"type": "DT_FLOAT"}, "value": {"tensor": {"dtype": "DT_FLOAT", "tensorShape": {"dim": [{"size": "16"}]}}}}}, {"name": "StatefulPartitionedCall/sequential_1/mobilenetv2_1.00_224_1/expanded_conv_project_BN_1/batchnorm/sub", "op": "Const", "attr": {"dtype": {"type": "DT_FLOAT"}, "value": {"tensor": {"dtype": "DT_FLOAT", "tensorShape": {"dim": [{"size": "16"}]}}}}}, {"name": "StatefulPartitionedCall/sequential_1/mobilenetv2_1.00_224_1/block_1_expand_1/convolution/Cast", "op": "Const", "attr": {"value": {"tensor": {"dtype": "DT_HALF", "tensorShape": {"dim": [{"size": "1"}, {"size": "1"}, {"size": "16"}, {"size": "96"}]}}}, "dtype": {"type": "DT_HALF"}}}, {"name": "StatefulPartitionedCall/sequential_1/mobilenetv2_1.00_224_1/block_1_expand_BN_1/batchnorm/mul", "op": "Const", "attr": {"value": {"tensor": {"dtype": "DT_FLOAT", "tensorShape": {"dim": [{"size": "96"}]}}}, "dtype": {"type": "DT_FLOAT"}}}, {"name": "StatefulPartitionedCall/sequential_1/mobilenetv2_1.00_224_1/block_1_expand_BN_1/batchnorm/sub", "op": "Const", "attr": {"value": {"tensor": {"dtype": "DT_FLOAT", "tensorShape": {"dim": [{"size": "96"}]}}}, "dtype": {"type": "DT_FLOAT"}}}, {"name": "StatefulPartitionedCall/sequential_1/mobilenetv2_1.00_224_1/block_1_pad_1/Const", "op": "Const", "attr": {"value": {"tensor": {"dtype": "DT_INT32", "tensorShape": {"dim": [{"size": "4"}, {"size": "2"}]}}}, "dtype": {"type": "DT_INT32"}}}, {"name": "StatefulPartitionedCall/sequential_1/mobilenetv2_1.00_224_1/block_1_depthwise_1/depthwise/Cast", "op": "Const", "attr": {"value": {"tensor": {"dtype": "DT_HALF", "tensorShape": {"dim": [{"size": "3"}, {"size": "3"}, {"size": "96"}, {"size": "1"}]}}}, "dtype": {"type": "DT_HALF"}}}, {"name": "StatefulPartitionedCall/sequential_1/mobilenetv2_1.00_224_1/block_1_depthwise_BN_1/batchnorm/mul", "op": "Const", "attr": {"dtype": {"type": "DT_FLOAT"}, "value": {"tensor": {"dtype": "DT_FLOAT", "tensorShape": {"dim": [{"size": "96"}]}}}}}, {"name": "StatefulPartitionedCall/sequential_1/mobilenetv2_1.00_224_1/block_1_depthwise_BN_1/batchnorm/sub", "op": "Const", "attr": {"dtype": {"type": "DT_FLOAT"}, "value": {"tensor": {"dtype": "DT_FLOAT", "tensorShape": {"dim": [{"size": "96"}]}}}}}, {"name": "StatefulPartitionedCall/sequential_1/mobilenetv2_1.00_224_1/block_1_project_1/convolution/Cast", "op": "Const", "attr": {"value": {"tensor": {"dtype": "DT_HALF", "tensorShape": {"dim": [{"size": "1"}, {"size": "1"}, {"size": "96"}, {"size": "24"}]}}}, "dtype": {"type": "DT_HALF"}}}, {"name": "StatefulPartitionedCall/sequential_1/mobilenetv2_1.00_224_1/block_1_project_BN_1/batchnorm/mul", "op": "Const", "attr": {"value": {"tensor": {"dtype": "DT_FLOAT", "tensorShape": {"dim": [{"size": "24"}]}}}, "dtype": {"type": "DT_FLOAT"}}}, {"name": "StatefulPartitionedCall/sequential_1/mobilenetv2_1.00_224_1/block_1_project_BN_1/batchnorm/sub", "op": "Const", "attr": {"value": {"tensor": {"dtype": "DT_FLOAT", "tensorShape": {"dim": [{"size": "24"}]}}}, "dtype": {"type": "DT_FLOAT"}}}, {"name": "StatefulPartitionedCall/sequential_1/mobilenetv2_1.00_224_1/block_2_expand_1/convolution/Cast", "op": "Const", "attr": {"value": {"tensor": {"dtype": "DT_HALF", "tensorShape": {"dim": [{"size": "1"}, {"size": "1"}, {"size": "24"}, {"size": "144"}]}}}, "dtype": {"type": "DT_HALF"}}}, {"name": "StatefulPartitionedCall/sequential_1/mobilenetv2_1.00_224_1/block_2_expand_BN_1/batchnorm/mul", "op": "Const", "attr": {"dtype": {"type": "DT_FLOAT"}, "value": {"tensor": {"dtype": "DT_FLOAT", "tensorShape": {"dim": [{"size": "144"}]}}}}}, {"name": "StatefulPartitionedCall/sequential_1/mobilenetv2_1.00_224_1/block_2_expand_BN_1/batchnorm/sub", "op": "Const", "attr": {"value": {"tensor": {"dtype": "DT_FLOAT", "tensorShape": {"dim": [{"size": "144"}]}}}, "dtype": {"type": "DT_FLOAT"}}}, {"name": "StatefulPartitionedCall/sequential_1/mobilenetv2_1.00_224_1/block_2_depthwise_1/depthwise/Cast", "op": "Const", "attr": {"value": {"tensor": {"dtype": "DT_HALF", "tensorShape": {"dim": [{"size": "3"}, {"size": "3"}, {"size": "144"}, {"size": "1"}]}}}, "dtype": {"type": "DT_HALF"}}}, {"name": "StatefulPartitionedCall/sequential_1/mobilenetv2_1.00_224_1/block_2_depthwise_BN_1/batchnorm/mul", "op": "Const", "attr": {"dtype": {"type": "DT_FLOAT"}, "value": {"tensor": {"dtype": "DT_FLOAT", "tensorShape": {"dim": [{"size": "144"}]}}}}}, {"name": "StatefulPartitionedCall/sequential_1/mobilenetv2_1.00_224_1/block_2_depthwise_BN_1/batchnorm/sub", "op": "Const", "attr": {"dtype": {"type": "DT_FLOAT"}, "value": {"tensor": {"dtype": "DT_FLOAT", "tensorShape": {"dim": [{"size": "144"}]}}}}}, {"name": "StatefulPartitionedCall/sequential_1/mobilenetv2_1.00_224_1/block_2_project_1/convolution/Cast", "op": "Const", "attr": {"dtype": {"type": "DT_HALF"}, "value": {"tensor": {"dtype": "DT_HALF", "tensorShape": {"dim": [{"size": "1"}, {"size": "1"}, {"size": "144"}, {"size": "24"}]}}}}}, {"name": "StatefulPartitionedCall/sequential_1/mobilenetv2_1.00_224_1/block_2_project_BN_1/batchnorm/mul", "op": "Const", "attr": {"value": {"tensor": {"dtype": "DT_FLOAT", "tensorShape": {"dim": [{"size": "24"}]}}}, "dtype": {"type": "DT_FLOAT"}}}, {"name": "StatefulPartitionedCall/sequential_1/mobilenetv2_1.00_224_1/block_2_project_BN_1/batchnorm/sub", "op": "Const", "attr": {"value": {"tensor": {"dtype": "DT_FLOAT", "tensorShape": {"dim": [{"size": "24"}]}}}, "dtype": {"type": "DT_FLOAT"}}}, {"name": "StatefulPartitionedCall/sequential_1/mobilenetv2_1.00_224_1/block_3_expand_1/convolution/Cast", "op": "Const", "attr": {"dtype": {"type": "DT_HALF"}, "value": {"tensor": {"dtype": "DT_HALF", "tensorShape": {"dim": [{"size": "1"}, {"size": "1"}, {"size": "24"}, {"size": "144"}]}}}}}, {"name": "StatefulPartitionedCall/sequential_1/mobilenetv2_1.00_224_1/block_3_expand_BN_1/batchnorm/mul", "op": "Const", "attr": {"value": {"tensor": {"dtype": "DT_FLOAT", "tensorShape": {"dim": [{"size": "144"}]}}}, "dtype": {"type": "DT_FLOAT"}}}, {"name": "StatefulPartitionedCall/sequential_1/mobilenetv2_1.00_224_1/block_3_expand_BN_1/batchnorm/sub", "op": "Const", "attr": {"dtype": {"type": "DT_FLOAT"}, "value": {"tensor": {"dtype": "DT_FLOAT", "tensorShape": {"dim": [{"size": "144"}]}}}}}, {"name": "StatefulPartitionedCall/sequential_1/mobilenetv2_1.00_224_1/block_3_pad_1/Const", "op": "Const", "attr": {"dtype": {"type": "DT_INT32"}, "value": {"tensor": {"dtype": "DT_INT32", "tensorShape": {"dim": [{"size": "4"}, {"size": "2"}]}}}}}, {"name": "StatefulPartitionedCall/sequential_1/mobilenetv2_1.00_224_1/block_3_depthwise_1/depthwise/Cast", "op": "Const", "attr": {"value": {"tensor": {"dtype": "DT_HALF", "tensorShape": {"dim": [{"size": "3"}, {"size": "3"}, {"size": "144"}, {"size": "1"}]}}}, "dtype": {"type": "DT_HALF"}}}, {"name": "StatefulPartitionedCall/sequential_1/mobilenetv2_1.00_224_1/block_3_depthwise_BN_1/batchnorm/mul", "op": "Const", "attr": {"dtype": {"type": "DT_FLOAT"}, "value": {"tensor": {"dtype": "DT_FLOAT", "tensorShape": {"dim": [{"size": "144"}]}}}}}, {"name": "StatefulPartitionedCall/sequential_1/mobilenetv2_1.00_224_1/block_3_depthwise_BN_1/batchnorm/sub", "op": "Const", "attr": {"value": {"tensor": {"dtype": "DT_FLOAT", "tensorShape": {"dim": [{"size": "144"}]}}}, "dtype": {"type": "DT_FLOAT"}}}, {"name": "StatefulPartitionedCall/sequential_1/mobilenetv2_1.00_224_1/block_3_project_1/convolution/Cast", "op": "Const", "attr": {"value": {"tensor": {"dtype": "DT_HALF", "tensorShape": {"dim": [{"size": "1"}, {"size": "1"}, {"size": "144"}, {"size": "32"}]}}}, "dtype": {"type": "DT_HALF"}}}, {"name": "StatefulPartitionedCall/sequential_1/mobilenetv2_1.00_224_1/block_3_project_BN_1/batchnorm/mul", "op": "Const", "attr": {"value": {"tensor": {"dtype": "DT_FLOAT", "tensorShape": {"dim": [{"size": "32"}]}}}, "dtype": {"type": "DT_FLOAT"}}}, {"name": "StatefulPartitionedCall/sequential_1/mobilenetv2_1.00_224_1/block_3_project_BN_1/batchnorm/sub", "op": "Const", "attr": {"dtype": {"type": "DT_FLOAT"}, "value": {"tensor": {"dtype": "DT_FLOAT", "tensorShape": {"dim": [{"size": "32"}]}}}}}, {"name": "StatefulPartitionedCall/sequential_1/mobilenetv2_1.00_224_1/block_4_expand_1/convolution/Cast", "op": "Const", "attr": {"value": {"tensor": {"dtype": "DT_HALF", "tensorShape": {"dim": [{"size": "1"}, {"size": "1"}, {"size": "32"}, {"size": "192"}]}}}, "dtype": {"type": "DT_HALF"}}}, {"name": "StatefulPartitionedCall/sequential_1/mobilenetv2_1.00_224_1/block_4_expand_BN_1/batchnorm/mul", "op": "Const", "attr": {"dtype": {"type": "DT_FLOAT"}, "value": {"tensor": {"dtype": "DT_FLOAT", "tensorShape": {"dim": [{"size": "192"}]}}}}}, {"name": "StatefulPartitionedCall/sequential_1/mobilenetv2_1.00_224_1/block_4_expand_BN_1/batchnorm/sub", "op": "Const", "attr": {"value": {"tensor": {"dtype": "DT_FLOAT", "tensorShape": {"dim": [{"size": "192"}]}}}, "dtype": {"type": "DT_FLOAT"}}}, {"name": "StatefulPartitionedCall/sequential_1/mobilenetv2_1.00_224_1/block_4_depthwise_1/depthwise/Cast", "op": "Const", "attr": {"dtype": {"type": "DT_HALF"}, "value": {"tensor": {"dtype": "DT_HALF", "tensorShape": {"dim": [{"size": "3"}, {"size": "3"}, {"size": "192"}, {"size": "1"}]}}}}}, {"name": "StatefulPartitionedCall/sequential_1/mobilenetv2_1.00_224_1/block_4_depthwise_BN_1/batchnorm/mul", "op": "Const", "attr": {"dtype": {"type": "DT_FLOAT"}, "value": {"tensor": {"dtype": "DT_FLOAT", "tensorShape": {"dim": [{"size": "192"}]}}}}}, {"name": "StatefulPartitionedCall/sequential_1/mobilenetv2_1.00_224_1/block_4_depthwise_BN_1/batchnorm/sub", "op": "Const", "attr": {"value": {"tensor": {"dtype": "DT_FLOAT", "tensorShape": {"dim": [{"size": "192"}]}}}, "dtype": {"type": "DT_FLOAT"}}}, {"name": "StatefulPartitionedCall/sequential_1/mobilenetv2_1.00_224_1/block_4_project_1/convolution/Cast", "op": "Const", "attr": {"dtype": {"type": "DT_HALF"}, "value": {"tensor": {"dtype": "DT_HALF", "tensorShape": {"dim": [{"size": "1"}, {"size": "1"}, {"size": "192"}, {"size": "32"}]}}}}}, {"name": "StatefulPartitionedCall/sequential_1/mobilenetv2_1.00_224_1/block_4_project_BN_1/batchnorm/mul", "op": "Const", "attr": {"value": {"tensor": {"dtype": "DT_FLOAT", "tensorShape": {"dim": [{"size": "32"}]}}}, "dtype": {"type": "DT_FLOAT"}}}, {"name": "StatefulPartitionedCall/sequential_1/mobilenetv2_1.00_224_1/block_4_project_BN_1/batchnorm/sub", "op": "Const", "attr": {"dtype": {"type": "DT_FLOAT"}, "value": {"tensor": {"dtype": "DT_FLOAT", "tensorShape": {"dim": [{"size": "32"}]}}}}}, {"name": "StatefulPartitionedCall/sequential_1/mobilenetv2_1.00_224_1/block_5_expand_1/convolution/Cast", "op": "Const", "attr": {"dtype": {"type": "DT_HALF"}, "value": {"tensor": {"dtype": "DT_HALF", "tensorShape": {"dim": [{"size": "1"}, {"size": "1"}, {"size": "32"}, {"size": "192"}]}}}}}, {"name": "StatefulPartitionedCall/sequential_1/mobilenetv2_1.00_224_1/block_5_expand_BN_1/batchnorm/mul", "op": "Const", "attr": {"dtype": {"type": "DT_FLOAT"}, "value": {"tensor": {"dtype": "DT_FLOAT", "tensorShape": {"dim": [{"size": "192"}]}}}}}, {"name": "StatefulPartitionedCall/sequential_1/mobilenetv2_1.00_224_1/block_5_expand_BN_1/batchnorm/sub", "op": "Const", "attr": {"value": {"tensor": {"dtype": "DT_FLOAT", "tensorShape": {"dim": [{"size": "192"}]}}}, "dtype": {"type": "DT_FLOAT"}}}, {"name": "StatefulPartitionedCall/sequential_1/mobilenetv2_1.00_224_1/block_5_depthwise_1/depthwise/Cast", "op": "Const", "attr": {"dtype": {"type": "DT_HALF"}, "value": {"tensor": {"dtype": "DT_HALF", "tensorShape": {"dim": [{"size": "3"}, {"size": "3"}, {"size": "192"}, {"size": "1"}]}}}}}, {"name": "StatefulPartitionedCall/sequential_1/mobilenetv2_1.00_224_1/block_5_depthwise_BN_1/batchnorm/mul", "op": "Const", "attr": {"dtype": {"type": "DT_FLOAT"}, "value": {"tensor": {"dtype": "DT_FLOAT", "tensorShape": {"dim": [{"size": "192"}]}}}}}, {"name": "StatefulPartitionedCall/sequential_1/mobilenetv2_1.00_224_1/block_5_depthwise_BN_1/batchnorm/sub", "op": "Const", "attr": {"dtype": {"type": "DT_FLOAT"}, "value": {"tensor": {"dtype": "DT_FLOAT", "tensorShape": {"dim": [{"size": "192"}]}}}}}, {"name": "StatefulPartitionedCall/sequential_1/mobilenetv2_1.00_224_1/block_5_project_1/convolution/Cast", "op": "Const", "attr": {"value": {"tensor": {"dtype": "DT_HALF", "tensorShape": {"dim": [{"size": "1"}, {"size": "1"}, {"size": "192"}, {"size": "32"}]}}}, "dtype": {"type": "DT_HALF"}}}, {"name": "StatefulPartitionedCall/sequential_1/mobilenetv2_1.00_224_1/block_5_project_BN_1/batchnorm/mul", "op": "Const", "attr": {"value": {"tensor": {"dtype": "DT_FLOAT", "tensorShape": {"dim": [{"size": "32"}]}}}, "dtype": {"type": "DT_FLOAT"}}}, {"name": "StatefulPartitionedCall/sequential_1/mobilenetv2_1.00_224_1/block_5_project_BN_1/batchnorm/sub", "op": "Const", "attr": {"value": {"tensor": {"dtype": "DT_FLOAT", "tensorShape": {"dim": [{"size": "32"}]}}}, "dtype": {"type": "DT_FLOAT"}}}, {"name": "StatefulPartitionedCall/sequential_1/mobilenetv2_1.00_224_1/block_6_expand_1/convolution/Cast", "op": "Const", "attr": {"value": {"tensor": {"dtype": "DT_HALF", "tensorShape": {"dim": [{"size": "1"}, {"size": "1"}, {"size": "32"}, {"size": "192"}]}}}, "dtype": {"type": "DT_HALF"}}}, {"name": "StatefulPartitionedCall/sequential_1/mobilenetv2_1.00_224_1/block_6_expand_BN_1/batchnorm/mul", "op": "Const", "attr": {"value": {"tensor": {"dtype": "DT_FLOAT", "tensorShape": {"dim": [{"size": "192"}]}}}, "dtype": {"type": "DT_FLOAT"}}}, {"name": "StatefulPartitionedCall/sequential_1/mobilenetv2_1.00_224_1/block_6_expand_BN_1/batchnorm/sub", "op": "Const", "attr": {"value": {"tensor": {"dtype": "DT_FLOAT", "tensorShape": {"dim": [{"size": "192"}]}}}, "dtype": {"type": "DT_FLOAT"}}}, {"name": "StatefulPartitionedCall/sequential_1/mobilenetv2_1.00_224_1/block_6_pad_1/Const", "op": "Const", "attr": {"value": {"tensor": {"dtype": "DT_INT32", "tensorShape": {"dim": [{"size": "4"}, {"size": "2"}]}}}, "dtype": {"type": "DT_INT32"}}}, {"name": "StatefulPartitionedCall/sequential_1/mobilenetv2_1.00_224_1/block_6_depthwise_1/depthwise/Cast", "op": "Const", "attr": {"value": {"tensor": {"dtype": "DT_HALF", "tensorShape": {"dim": [{"size": "3"}, {"size": "3"}, {"size": "192"}, {"size": "1"}]}}}, "dtype": {"type": "DT_HALF"}}}, {"name": "StatefulPartitionedCall/sequential_1/mobilenetv2_1.00_224_1/block_6_depthwise_BN_1/batchnorm/mul", "op": "Const", "attr": {"value": {"tensor": {"dtype": "DT_FLOAT", "tensorShape": {"dim": [{"size": "192"}]}}}, "dtype": {"type": "DT_FLOAT"}}}, {"name": "StatefulPartitionedCall/sequential_1/mobilenetv2_1.00_224_1/block_6_depthwise_BN_1/batchnorm/sub", "op": "Const", "attr": {"dtype": {"type": "DT_FLOAT"}, "value": {"tensor": {"dtype": "DT_FLOAT", "tensorShape": {"dim": [{"size": "192"}]}}}}}, {"name": "StatefulPartitionedCall/sequential_1/mobilenetv2_1.00_224_1/block_6_project_1/convolution/Cast", "op": "Const", "attr": {"value": {"tensor": {"dtype": "DT_HALF", "tensorShape": {"dim": [{"size": "1"}, {"size": "1"}, {"size": "192"}, {"size": "64"}]}}}, "dtype": {"type": "DT_HALF"}}}, {"name": "StatefulPartitionedCall/sequential_1/mobilenetv2_1.00_224_1/block_6_project_BN_1/batchnorm/mul", "op": "Const", "attr": {"value": {"tensor": {"dtype": "DT_FLOAT", "tensorShape": {"dim": [{"size": "64"}]}}}, "dtype": {"type": "DT_FLOAT"}}}, {"name": "StatefulPartitionedCall/sequential_1/mobilenetv2_1.00_224_1/block_6_project_BN_1/batchnorm/sub", "op": "Const", "attr": {"dtype": {"type": "DT_FLOAT"}, "value": {"tensor": {"dtype": "DT_FLOAT", "tensorShape": {"dim": [{"size": "64"}]}}}}}, {"name": "StatefulPartitionedCall/sequential_1/mobilenetv2_1.00_224_1/block_7_expand_1/convolution/Cast", "op": "Const", "attr": {"dtype": {"type": "DT_HALF"}, "value": {"tensor": {"dtype": "DT_HALF", "tensorShape": {"dim": [{"size": "1"}, {"size": "1"}, {"size": "64"}, {"size": "384"}]}}}}}, {"name": "StatefulPartitionedCall/sequential_1/mobilenetv2_1.00_224_1/block_7_expand_BN_1/batchnorm/mul", "op": "Const", "attr": {"value": {"tensor": {"dtype": "DT_FLOAT", "tensorShape": {"dim": [{"size": "384"}]}}}, "dtype": {"type": "DT_FLOAT"}}}, {"name": "StatefulPartitionedCall/sequential_1/mobilenetv2_1.00_224_1/block_7_expand_BN_1/batchnorm/sub", "op": "Const", "attr": {"value": {"tensor": {"dtype": "DT_FLOAT", "tensorShape": {"dim": [{"size": "384"}]}}}, "dtype": {"type": "DT_FLOAT"}}}, {"name": "StatefulPartitionedCall/sequential_1/mobilenetv2_1.00_224_1/block_7_depthwise_1/depthwise/Cast", "op": "Const", "attr": {"dtype": {"type": "DT_HALF"}, "value": {"tensor": {"dtype": "DT_HALF", "tensorShape": {"dim": [{"size": "3"}, {"size": "3"}, {"size": "384"}, {"size": "1"}]}}}}}, {"name": "StatefulPartitionedCall/sequential_1/mobilenetv2_1.00_224_1/block_7_depthwise_BN_1/batchnorm/mul", "op": "Const", "attr": {"dtype": {"type": "DT_FLOAT"}, "value": {"tensor": {"dtype": "DT_FLOAT", "tensorShape": {"dim": [{"size": "384"}]}}}}}, {"name": "StatefulPartitionedCall/sequential_1/mobilenetv2_1.00_224_1/block_7_depthwise_BN_1/batchnorm/sub", "op": "Const", "attr": {"value": {"tensor": {"dtype": "DT_FLOAT", "tensorShape": {"dim": [{"size": "384"}]}}}, "dtype": {"type": "DT_FLOAT"}}}, {"name": "StatefulPartitionedCall/sequential_1/mobilenetv2_1.00_224_1/block_7_project_1/convolution/Cast", "op": "Const", "attr": {"value": {"tensor": {"dtype": "DT_HALF", "tensorShape": {"dim": [{"size": "1"}, {"size": "1"}, {"size": "384"}, {"size": "64"}]}}}, "dtype": {"type": "DT_HALF"}}}, {"name": "StatefulPartitionedCall/sequential_1/mobilenetv2_1.00_224_1/block_7_project_BN_1/batchnorm/mul", "op": "Const", "attr": {"dtype": {"type": "DT_FLOAT"}, "value": {"tensor": {"dtype": "DT_FLOAT", "tensorShape": {"dim": [{"size": "64"}]}}}}}, {"name": "StatefulPartitionedCall/sequential_1/mobilenetv2_1.00_224_1/block_7_project_BN_1/batchnorm/sub", "op": "Const", "attr": {"value": {"tensor": {"dtype": "DT_FLOAT", "tensorShape": {"dim": [{"size": "64"}]}}}, "dtype": {"type": "DT_FLOAT"}}}, {"name": "StatefulPartitionedCall/sequential_1/mobilenetv2_1.00_224_1/block_8_expand_1/convolution/Cast", "op": "Const", "attr": {"dtype": {"type": "DT_HALF"}, "value": {"tensor": {"dtype": "DT_HALF", "tensorShape": {"dim": [{"size": "1"}, {"size": "1"}, {"size": "64"}, {"size": "384"}]}}}}}, {"name": "StatefulPartitionedCall/sequential_1/mobilenetv2_1.00_224_1/block_8_expand_BN_1/batchnorm/mul", "op": "Const", "attr": {"value": {"tensor": {"dtype": "DT_FLOAT", "tensorShape": {"dim": [{"size": "384"}]}}}, "dtype": {"type": "DT_FLOAT"}}}, {"name": "StatefulPartitionedCall/sequential_1/mobilenetv2_1.00_224_1/block_8_expand_BN_1/batchnorm/sub", "op": "Const", "attr": {"value": {"tensor": {"dtype": "DT_FLOAT", "tensorShape": {"dim": [{"size": "384"}]}}}, "dtype": {"type": "DT_FLOAT"}}}, {"name": "StatefulPartitionedCall/sequential_1/mobilenetv2_1.00_224_1/block_8_depthwise_1/depthwise/Cast", "op": "Const", "attr": {"value": {"tensor": {"dtype": "DT_HALF", "tensorShape": {"dim": [{"size": "3"}, {"size": "3"}, {"size": "384"}, {"size": "1"}]}}}, "dtype": {"type": "DT_HALF"}}}, {"name": "StatefulPartitionedCall/sequential_1/mobilenetv2_1.00_224_1/block_8_depthwise_BN_1/batchnorm/mul", "op": "Const", "attr": {"dtype": {"type": "DT_FLOAT"}, "value": {"tensor": {"dtype": "DT_FLOAT", "tensorShape": {"dim": [{"size": "384"}]}}}}}, {"name": "StatefulPartitionedCall/sequential_1/mobilenetv2_1.00_224_1/block_8_depthwise_BN_1/batchnorm/sub", "op": "Const", "attr": {"dtype": {"type": "DT_FLOAT"}, "value": {"tensor": {"dtype": "DT_FLOAT", "tensorShape": {"dim": [{"size": "384"}]}}}}}, {"name": "StatefulPartitionedCall/sequential_1/mobilenetv2_1.00_224_1/block_8_project_1/convolution/Cast", "op": "Const", "attr": {"value": {"tensor": {"dtype": "DT_HALF", "tensorShape": {"dim": [{"size": "1"}, {"size": "1"}, {"size": "384"}, {"size": "64"}]}}}, "dtype": {"type": "DT_HALF"}}}, {"name": "StatefulPartitionedCall/sequential_1/mobilenetv2_1.00_224_1/block_8_project_BN_1/batchnorm/mul", "op": "Const", "attr": {"dtype": {"type": "DT_FLOAT"}, "value": {"tensor": {"dtype": "DT_FLOAT", "tensorShape": {"dim": [{"size": "64"}]}}}}}, {"name": "StatefulPartitionedCall/sequential_1/mobilenetv2_1.00_224_1/block_8_project_BN_1/batchnorm/sub", "op": "Const", "attr": {"value": {"tensor": {"dtype": "DT_FLOAT", "tensorShape": {"dim": [{"size": "64"}]}}}, "dtype": {"type": "DT_FLOAT"}}}, {"name": "StatefulPartitionedCall/sequential_1/mobilenetv2_1.00_224_1/block_9_expand_1/convolution/Cast", "op": "Const", "attr": {"dtype": {"type": "DT_HALF"}, "value": {"tensor": {"dtype": "DT_HALF", "tensorShape": {"dim": [{"size": "1"}, {"size": "1"}, {"size": "64"}, {"size": "384"}]}}}}}, {"name": "StatefulPartitionedCall/sequential_1/mobilenetv2_1.00_224_1/block_9_expand_BN_1/batchnorm/mul", "op": "Const", "attr": {"dtype": {"type": "DT_FLOAT"}, "value": {"tensor": {"dtype": "DT_FLOAT", "tensorShape": {"dim": [{"size": "384"}]}}}}}, {"name": "StatefulPartitionedCall/sequential_1/mobilenetv2_1.00_224_1/block_9_expand_BN_1/batchnorm/sub", "op": "Const", "attr": {"value": {"tensor": {"dtype": "DT_FLOAT", "tensorShape": {"dim": [{"size": "384"}]}}}, "dtype": {"type": "DT_FLOAT"}}}, {"name": "StatefulPartitionedCall/sequential_1/mobilenetv2_1.00_224_1/block_9_depthwise_1/depthwise/Cast", "op": "Const", "attr": {"dtype": {"type": "DT_HALF"}, "value": {"tensor": {"dtype": "DT_HALF", "tensorShape": {"dim": [{"size": "3"}, {"size": "3"}, {"size": "384"}, {"size": "1"}]}}}}}, {"name": "StatefulPartitionedCall/sequential_1/mobilenetv2_1.00_224_1/block_9_depthwise_BN_1/batchnorm/mul", "op": "Const", "attr": {"value": {"tensor": {"dtype": "DT_FLOAT", "tensorShape": {"dim": [{"size": "384"}]}}}, "dtype": {"type": "DT_FLOAT"}}}, {"name": "StatefulPartitionedCall/sequential_1/mobilenetv2_1.00_224_1/block_9_depthwise_BN_1/batchnorm/sub", "op": "Const", "attr": {"value": {"tensor": {"dtype": "DT_FLOAT", "tensorShape": {"dim": [{"size": "384"}]}}}, "dtype": {"type": "DT_FLOAT"}}}, {"name": "StatefulPartitionedCall/sequential_1/mobilenetv2_1.00_224_1/block_9_project_1/convolution/Cast", "op": "Const", "attr": {"value": {"tensor": {"dtype": "DT_HALF", "tensorShape": {"dim": [{"size": "1"}, {"size": "1"}, {"size": "384"}, {"size": "64"}]}}}, "dtype": {"type": "DT_HALF"}}}, {"name": "StatefulPartitionedCall/sequential_1/mobilenetv2_1.00_224_1/block_9_project_BN_1/batchnorm/mul", "op": "Const", "attr": {"value": {"tensor": {"dtype": "DT_FLOAT", "tensorShape": {"dim": [{"size": "64"}]}}}, "dtype": {"type": "DT_FLOAT"}}}, {"name": "StatefulPartitionedCall/sequential_1/mobilenetv2_1.00_224_1/block_9_project_BN_1/batchnorm/sub", "op": "Const", "attr": {"dtype": {"type": "DT_FLOAT"}, "value": {"tensor": {"dtype": "DT_FLOAT", "tensorShape": {"dim": [{"size": "64"}]}}}}}, {"name": "StatefulPartitionedCall/sequential_1/mobilenetv2_1.00_224_1/block_10_expand_1/convolution/Cast", "op": "Const", "attr": {"value": {"tensor": {"dtype": "DT_HALF", "tensorShape": {"dim": [{"size": "1"}, {"size": "1"}, {"size": "64"}, {"size": "384"}]}}}, "dtype": {"type": "DT_HALF"}}}, {"name": "StatefulPartitionedCall/sequential_1/mobilenetv2_1.00_224_1/block_10_expand_BN_1/batchnorm/mul", "op": "Const", "attr": {"value": {"tensor": {"dtype": "DT_FLOAT", "tensorShape": {"dim": [{"size": "384"}]}}}, "dtype": {"type": "DT_FLOAT"}}}, {"name": "StatefulPartitionedCall/sequential_1/mobilenetv2_1.00_224_1/block_10_expand_BN_1/batchnorm/sub", "op": "Const", "attr": {"dtype": {"type": "DT_FLOAT"}, "value": {"tensor": {"dtype": "DT_FLOAT", "tensorShape": {"dim": [{"size": "384"}]}}}}}, {"name": "StatefulPartitionedCall/sequential_1/mobilenetv2_1.00_224_1/block_10_depthwise_1/depthwise/Cast", "op": "Const", "attr": {"value": {"tensor": {"dtype": "DT_HALF", "tensorShape": {"dim": [{"size": "3"}, {"size": "3"}, {"size": "384"}, {"size": "1"}]}}}, "dtype": {"type": "DT_HALF"}}}, {"name": "StatefulPartitionedCall/sequential_1/mobilenetv2_1.00_224_1/block_10_depthwise_BN_1/batchnorm/mul", "op": "Const", "attr": {"value": {"tensor": {"dtype": "DT_FLOAT", "tensorShape": {"dim": [{"size": "384"}]}}}, "dtype": {"type": "DT_FLOAT"}}}, {"name": "StatefulPartitionedCall/sequential_1/mobilenetv2_1.00_224_1/block_10_depthwise_BN_1/batchnorm/sub", "op": "Const", "attr": {"value": {"tensor": {"dtype": "DT_FLOAT", "tensorShape": {"dim": [{"size": "384"}]}}}, "dtype": {"type": "DT_FLOAT"}}}, {"name": "StatefulPartitionedCall/sequential_1/mobilenetv2_1.00_224_1/block_10_project_1/convolution/Cast", "op": "Const", "attr": {"value": {"tensor": {"dtype": "DT_HALF", "tensorShape": {"dim": [{"size": "1"}, {"size": "1"}, {"size": "384"}, {"size": "96"}]}}}, "dtype": {"type": "DT_HALF"}}}, {"name": "StatefulPartitionedCall/sequential_1/mobilenetv2_1.00_224_1/block_10_project_BN_1/batchnorm/mul", "op": "Const", "attr": {"dtype": {"type": "DT_FLOAT"}, "value": {"tensor": {"dtype": "DT_FLOAT", "tensorShape": {"dim": [{"size": "96"}]}}}}}, {"name": "StatefulPartitionedCall/sequential_1/mobilenetv2_1.00_224_1/block_10_project_BN_1/batchnorm/sub", "op": "Const", "attr": {"value": {"tensor": {"dtype": "DT_FLOAT", "tensorShape": {"dim": [{"size": "96"}]}}}, "dtype": {"type": "DT_FLOAT"}}}, {"name": "StatefulPartitionedCall/sequential_1/mobilenetv2_1.00_224_1/block_11_expand_1/convolution/Cast", "op": "Const", "attr": {"value": {"tensor": {"dtype": "DT_HALF", "tensorShape": {"dim": [{"size": "1"}, {"size": "1"}, {"size": "96"}, {"size": "576"}]}}}, "dtype": {"type": "DT_HALF"}}}, {"name": "StatefulPartitionedCall/sequential_1/mobilenetv2_1.00_224_1/block_11_expand_BN_1/batchnorm/mul", "op": "Const", "attr": {"dtype": {"type": "DT_FLOAT"}, "value": {"tensor": {"dtype": "DT_FLOAT", "tensorShape": {"dim": [{"size": "576"}]}}}}}, {"name": "StatefulPartitionedCall/sequential_1/mobilenetv2_1.00_224_1/block_11_expand_BN_1/batchnorm/sub", "op": "Const", "attr": {"value": {"tensor": {"dtype": "DT_FLOAT", "tensorShape": {"dim": [{"size": "576"}]}}}, "dtype": {"type": "DT_FLOAT"}}}, {"name": "StatefulPartitionedCall/sequential_1/mobilenetv2_1.00_224_1/block_11_depthwise_1/depthwise/Cast", "op": "Const", "attr": {"value": {"tensor": {"dtype": "DT_HALF", "tensorShape": {"dim": [{"size": "3"}, {"size": "3"}, {"size": "576"}, {"size": "1"}]}}}, "dtype": {"type": "DT_HALF"}}}, {"name": "StatefulPartitionedCall/sequential_1/mobilenetv2_1.00_224_1/block_11_depthwise_BN_1/batchnorm/mul", "op": "Const", "attr": {"value": {"tensor": {"dtype": "DT_FLOAT", "tensorShape": {"dim": [{"size": "576"}]}}}, "dtype": {"type": "DT_FLOAT"}}}, {"name": "StatefulPartitionedCall/sequential_1/mobilenetv2_1.00_224_1/block_11_depthwise_BN_1/batchnorm/sub", "op": "Const", "attr": {"dtype": {"type": "DT_FLOAT"}, "value": {"tensor": {"dtype": "DT_FLOAT", "tensorShape": {"dim": [{"size": "576"}]}}}}}, {"name": "StatefulPartitionedCall/sequential_1/mobilenetv2_1.00_224_1/block_11_project_1/convolution/Cast", "op": "Const", "attr": {"value": {"tensor": {"dtype": "DT_HALF", "tensorShape": {"dim": [{"size": "1"}, {"size": "1"}, {"size": "576"}, {"size": "96"}]}}}, "dtype": {"type": "DT_HALF"}}}, {"name": "StatefulPartitionedCall/sequential_1/mobilenetv2_1.00_224_1/block_11_project_BN_1/batchnorm/mul", "op": "Const", "attr": {"dtype": {"type": "DT_FLOAT"}, "value": {"tensor": {"dtype": "DT_FLOAT", "tensorShape": {"dim": [{"size": "96"}]}}}}}, {"name": "StatefulPartitionedCall/sequential_1/mobilenetv2_1.00_224_1/block_11_project_BN_1/batchnorm/sub", "op": "Const", "attr": {"dtype": {"type": "DT_FLOAT"}, "value": {"tensor": {"dtype": "DT_FLOAT", "tensorShape": {"dim": [{"size": "96"}]}}}}}, {"name": "StatefulPartitionedCall/sequential_1/mobilenetv2_1.00_224_1/block_12_expand_1/convolution/Cast", "op": "Const", "attr": {"dtype": {"type": "DT_HALF"}, "value": {"tensor": {"dtype": "DT_HALF", "tensorShape": {"dim": [{"size": "1"}, {"size": "1"}, {"size": "96"}, {"size": "576"}]}}}}}, {"name": "StatefulPartitionedCall/sequential_1/mobilenetv2_1.00_224_1/block_12_expand_BN_1/batchnorm/mul", "op": "Const", "attr": {"dtype": {"type": "DT_FLOAT"}, "value": {"tensor": {"dtype": "DT_FLOAT", "tensorShape": {"dim": [{"size": "576"}]}}}}}, {"name": "StatefulPartitionedCall/sequential_1/mobilenetv2_1.00_224_1/block_12_expand_BN_1/batchnorm/sub", "op": "Const", "attr": {"dtype": {"type": "DT_FLOAT"}, "value": {"tensor": {"dtype": "DT_FLOAT", "tensorShape": {"dim": [{"size": "576"}]}}}}}, {"name": "StatefulPartitionedCall/sequential_1/mobilenetv2_1.00_224_1/block_12_depthwise_1/depthwise/Cast", "op": "Const", "attr": {"value": {"tensor": {"dtype": "DT_HALF", "tensorShape": {"dim": [{"size": "3"}, {"size": "3"}, {"size": "576"}, {"size": "1"}]}}}, "dtype": {"type": "DT_HALF"}}}, {"name": "StatefulPartitionedCall/sequential_1/mobilenetv2_1.00_224_1/block_12_depthwise_BN_1/batchnorm/mul", "op": "Const", "attr": {"value": {"tensor": {"dtype": "DT_FLOAT", "tensorShape": {"dim": [{"size": "576"}]}}}, "dtype": {"type": "DT_FLOAT"}}}, {"name": "StatefulPartitionedCall/sequential_1/mobilenetv2_1.00_224_1/block_12_depthwise_BN_1/batchnorm/sub", "op": "Const", "attr": {"value": {"tensor": {"dtype": "DT_FLOAT", "tensorShape": {"dim": [{"size": "576"}]}}}, "dtype": {"type": "DT_FLOAT"}}}, {"name": "StatefulPartitionedCall/sequential_1/mobilenetv2_1.00_224_1/block_12_project_1/convolution/Cast", "op": "Const", "attr": {"dtype": {"type": "DT_HALF"}, "value": {"tensor": {"dtype": "DT_HALF", "tensorShape": {"dim": [{"size": "1"}, {"size": "1"}, {"size": "576"}, {"size": "96"}]}}}}}, {"name": "StatefulPartitionedCall/sequential_1/mobilenetv2_1.00_224_1/block_12_project_BN_1/batchnorm/mul", "op": "Const", "attr": {"value": {"tensor": {"dtype": "DT_FLOAT", "tensorShape": {"dim": [{"size": "96"}]}}}, "dtype": {"type": "DT_FLOAT"}}}, {"name": "StatefulPartitionedCall/sequential_1/mobilenetv2_1.00_224_1/block_12_project_BN_1/batchnorm/sub", "op": "Const", "attr": {"value": {"tensor": {"dtype": "DT_FLOAT", "tensorShape": {"dim": [{"size": "96"}]}}}, "dtype": {"type": "DT_FLOAT"}}}, {"name": "StatefulPartitionedCall/sequential_1/mobilenetv2_1.00_224_1/block_13_expand_1/convolution/Cast", "op": "Const", "attr": {"value": {"tensor": {"dtype": "DT_HALF", "tensorShape": {"dim": [{"size": "1"}, {"size": "1"}, {"size": "96"}, {"size": "576"}]}}}, "dtype": {"type": "DT_HALF"}}}, {"name": "StatefulPartitionedCall/sequential_1/mobilenetv2_1.00_224_1/block_13_expand_BN_1/batchnorm/mul", "op": "Const", "attr": {"dtype": {"type": "DT_FLOAT"}, "value": {"tensor": {"dtype": "DT_FLOAT", "tensorShape": {"dim": [{"size": "576"}]}}}}}, {"name": "StatefulPartitionedCall/sequential_1/mobilenetv2_1.00_224_1/block_13_expand_BN_1/batchnorm/sub", "op": "Const", "attr": {"value": {"tensor": {"dtype": "DT_FLOAT", "tensorShape": {"dim": [{"size": "576"}]}}}, "dtype": {"type": "DT_FLOAT"}}}, {"name": "StatefulPartitionedCall/sequential_1/mobilenetv2_1.00_224_1/block_13_pad_1/Const", "op": "Const", "attr": {"value": {"tensor": {"dtype": "DT_INT32", "tensorShape": {"dim": [{"size": "4"}, {"size": "2"}]}}}, "dtype": {"type": "DT_INT32"}}}, {"name": "StatefulPartitionedCall/sequential_1/mobilenetv2_1.00_224_1/block_13_depthwise_1/depthwise/Cast", "op": "Const", "attr": {"value": {"tensor": {"dtype": "DT_HALF", "tensorShape": {"dim": [{"size": "3"}, {"size": "3"}, {"size": "576"}, {"size": "1"}]}}}, "dtype": {"type": "DT_HALF"}}}, {"name": "StatefulPartitionedCall/sequential_1/mobilenetv2_1.00_224_1/block_13_depthwise_BN_1/batchnorm/mul", "op": "Const", "attr": {"value": {"tensor": {"dtype": "DT_FLOAT", "tensorShape": {"dim": [{"size": "576"}]}}}, "dtype": {"type": "DT_FLOAT"}}}, {"name": "StatefulPartitionedCall/sequential_1/mobilenetv2_1.00_224_1/block_13_depthwise_BN_1/batchnorm/sub", "op": "Const", "attr": {"dtype": {"type": "DT_FLOAT"}, "value": {"tensor": {"dtype": "DT_FLOAT", "tensorShape": {"dim": [{"size": "576"}]}}}}}, {"name": "StatefulPartitionedCall/sequential_1/mobilenetv2_1.00_224_1/block_13_project_1/convolution/Cast", "op": "Const", "attr": {"dtype": {"type": "DT_HALF"}, "value": {"tensor": {"dtype": "DT_HALF", "tensorShape": {"dim": [{"size": "1"}, {"size": "1"}, {"size": "576"}, {"size": "160"}]}}}}}, {"name": "StatefulPartitionedCall/sequential_1/mobilenetv2_1.00_224_1/block_13_project_BN_1/batchnorm/mul", "op": "Const", "attr": {"value": {"tensor": {"dtype": "DT_FLOAT", "tensorShape": {"dim": [{"size": "160"}]}}}, "dtype": {"type": "DT_FLOAT"}}}, {"name": "StatefulPartitionedCall/sequential_1/mobilenetv2_1.00_224_1/block_13_project_BN_1/batchnorm/sub", "op": "Const", "attr": {"dtype": {"type": "DT_FLOAT"}, "value": {"tensor": {"dtype": "DT_FLOAT", "tensorShape": {"dim": [{"size": "160"}]}}}}}, {"name": "StatefulPartitionedCall/sequential_1/mobilenetv2_1.00_224_1/block_14_expand_1/convolution/Cast", "op": "Const", "attr": {"dtype": {"type": "DT_HALF"}, "value": {"tensor": {"dtype": "DT_HALF", "tensorShape": {"dim": [{"size": "1"}, {"size": "1"}, {"size": "160"}, {"size": "960"}]}}}}}, {"name": "StatefulPartitionedCall/sequential_1/mobilenetv2_1.00_224_1/block_14_expand_BN_1/batchnorm/mul", "op": "Const", "attr": {"value": {"tensor": {"dtype": "DT_FLOAT", "tensorShape": {"dim": [{"size": "960"}]}}}, "dtype": {"type": "DT_FLOAT"}}}, {"name": "StatefulPartitionedCall/sequential_1/mobilenetv2_1.00_224_1/block_14_expand_BN_1/batchnorm/sub", "op": "Const", "attr": {"value": {"tensor": {"dtype": "DT_FLOAT", "tensorShape": {"dim": [{"size": "960"}]}}}, "dtype": {"type": "DT_FLOAT"}}}, {"name": "StatefulPartitionedCall/sequential_1/mobilenetv2_1.00_224_1/block_14_depthwise_1/depthwise/Cast", "op": "Const", "attr": {"value": {"tensor": {"dtype": "DT_HALF", "tensorShape": {"dim": [{"size": "3"}, {"size": "3"}, {"size": "960"}, {"size": "1"}]}}}, "dtype": {"type": "DT_HALF"}}}, {"name": "StatefulPartitionedCall/sequential_1/mobilenetv2_1.00_224_1/block_14_depthwise_BN_1/batchnorm/mul", "op": "Const", "attr": {"value": {"tensor": {"dtype": "DT_FLOAT", "tensorShape": {"dim": [{"size": "960"}]}}}, "dtype": {"type": "DT_FLOAT"}}}, {"name": "StatefulPartitionedCall/sequential_1/mobilenetv2_1.00_224_1/block_14_depthwise_BN_1/batchnorm/sub", "op": "Const", "attr": {"value": {"tensor": {"dtype": "DT_FLOAT", "tensorShape": {"dim": [{"size": "960"}]}}}, "dtype": {"type": "DT_FLOAT"}}}, {"name": "StatefulPartitionedCall/sequential_1/mobilenetv2_1.00_224_1/block_14_project_1/convolution/Cast", "op": "Const", "attr": {"dtype": {"type": "DT_HALF"}, "value": {"tensor": {"dtype": "DT_HALF", "tensorShape": {"dim": [{"size": "1"}, {"size": "1"}, {"size": "960"}, {"size": "160"}]}}}}}, {"name": "StatefulPartitionedCall/sequential_1/mobilenetv2_1.00_224_1/block_14_project_BN_1/batchnorm/mul", "op": "Const", "attr": {"value": {"tensor": {"dtype": "DT_FLOAT", "tensorShape": {"dim": [{"size": "160"}]}}}, "dtype": {"type": "DT_FLOAT"}}}, {"name": "StatefulPartitionedCall/sequential_1/mobilenetv2_1.00_224_1/block_14_project_BN_1/batchnorm/sub", "op": "Const", "attr": {"dtype": {"type": "DT_FLOAT"}, "value": {"tensor": {"dtype": "DT_FLOAT", "tensorShape": {"dim": [{"size": "160"}]}}}}}, {"name": "StatefulPartitionedCall/sequential_1/mobilenetv2_1.00_224_1/block_15_expand_1/convolution/Cast", "op": "Const", "attr": {"dtype": {"type": "DT_HALF"}, "value": {"tensor": {"dtype": "DT_HALF", "tensorShape": {"dim": [{"size": "1"}, {"size": "1"}, {"size": "160"}, {"size": "960"}]}}}}}, {"name": "StatefulPartitionedCall/sequential_1/mobilenetv2_1.00_224_1/block_15_expand_BN_1/batchnorm/mul", "op": "Const", "attr": {"value": {"tensor": {"dtype": "DT_FLOAT", "tensorShape": {"dim": [{"size": "960"}]}}}, "dtype": {"type": "DT_FLOAT"}}}, {"name": "StatefulPartitionedCall/sequential_1/mobilenetv2_1.00_224_1/block_15_expand_BN_1/batchnorm/sub", "op": "Const", "attr": {"value": {"tensor": {"dtype": "DT_FLOAT", "tensorShape": {"dim": [{"size": "960"}]}}}, "dtype": {"type": "DT_FLOAT"}}}, {"name": "StatefulPartitionedCall/sequential_1/mobilenetv2_1.00_224_1/block_15_depthwise_1/depthwise/Cast", "op": "Const", "attr": {"dtype": {"type": "DT_HALF"}, "value": {"tensor": {"dtype": "DT_HALF", "tensorShape": {"dim": [{"size": "3"}, {"size": "3"}, {"size": "960"}, {"size": "1"}]}}}}}, {"name": "StatefulPartitionedCall/sequential_1/mobilenetv2_1.00_224_1/block_15_depthwise_BN_1/batchnorm/mul", "op": "Const", "attr": {"dtype": {"type": "DT_FLOAT"}, "value": {"tensor": {"dtype": "DT_FLOAT", "tensorShape": {"dim": [{"size": "960"}]}}}}}, {"name": "StatefulPartitionedCall/sequential_1/mobilenetv2_1.00_224_1/block_15_depthwise_BN_1/batchnorm/sub", "op": "Const", "attr": {"value": {"tensor": {"dtype": "DT_FLOAT", "tensorShape": {"dim": [{"size": "960"}]}}}, "dtype": {"type": "DT_FLOAT"}}}, {"name": "StatefulPartitionedCall/sequential_1/mobilenetv2_1.00_224_1/block_15_project_1/convolution/Cast", "op": "Const", "attr": {"value": {"tensor": {"dtype": "DT_HALF", "tensorShape": {"dim": [{"size": "1"}, {"size": "1"}, {"size": "960"}, {"size": "160"}]}}}, "dtype": {"type": "DT_HALF"}}}, {"name": "StatefulPartitionedCall/sequential_1/mobilenetv2_1.00_224_1/block_15_project_BN_1/batchnorm/mul", "op": "Const", "attr": {"dtype": {"type": "DT_FLOAT"}, "value": {"tensor": {"dtype": "DT_FLOAT", "tensorShape": {"dim": [{"size": "160"}]}}}}}, {"name": "StatefulPartitionedCall/sequential_1/mobilenetv2_1.00_224_1/block_15_project_BN_1/batchnorm/sub", "op": "Const", "attr": {"dtype": {"type": "DT_FLOAT"}, "value": {"tensor": {"dtype": "DT_FLOAT", "tensorShape": {"dim": [{"size": "160"}]}}}}}, {"name": "StatefulPartitionedCall/sequential_1/mobilenetv2_1.00_224_1/block_16_expand_1/convolution/Cast", "op": "Const", "attr": {"dtype": {"type": "DT_HALF"}, "value": {"tensor": {"dtype": "DT_HALF", "tensorShape": {"dim": [{"size": "1"}, {"size": "1"}, {"size": "160"}, {"size": "960"}]}}}}}, {"name": "StatefulPartitionedCall/sequential_1/mobilenetv2_1.00_224_1/block_16_expand_BN_1/batchnorm/mul", "op": "Const", "attr": {"value": {"tensor": {"dtype": "DT_FLOAT", "tensorShape": {"dim": [{"size": "960"}]}}}, "dtype": {"type": "DT_FLOAT"}}}, {"name": "StatefulPartitionedCall/sequential_1/mobilenetv2_1.00_224_1/block_16_expand_BN_1/batchnorm/sub", "op": "Const", "attr": {"value": {"tensor": {"dtype": "DT_FLOAT", "tensorShape": {"dim": [{"size": "960"}]}}}, "dtype": {"type": "DT_FLOAT"}}}, {"name": "StatefulPartitionedCall/sequential_1/mobilenetv2_1.00_224_1/block_16_depthwise_1/depthwise/Cast", "op": "Const", "attr": {"value": {"tensor": {"dtype": "DT_HALF", "tensorShape": {"dim": [{"size": "3"}, {"size": "3"}, {"size": "960"}, {"size": "1"}]}}}, "dtype": {"type": "DT_HALF"}}}, {"name": "StatefulPartitionedCall/sequential_1/mobilenetv2_1.00_224_1/block_16_depthwise_BN_1/batchnorm/mul", "op": "Const", "attr": {"value": {"tensor": {"dtype": "DT_FLOAT", "tensorShape": {"dim": [{"size": "960"}]}}}, "dtype": {"type": "DT_FLOAT"}}}, {"name": "StatefulPartitionedCall/sequential_1/mobilenetv2_1.00_224_1/block_16_depthwise_BN_1/batchnorm/sub", "op": "Const", "attr": {"value": {"tensor": {"dtype": "DT_FLOAT", "tensorShape": {"dim": [{"size": "960"}]}}}, "dtype": {"type": "DT_FLOAT"}}}, {"name": "StatefulPartitionedCall/sequential_1/mobilenetv2_1.00_224_1/block_16_project_1/convolution/Cast", "op": "Const", "attr": {"value": {"tensor": {"dtype": "DT_HALF", "tensorShape": {"dim": [{"size": "1"}, {"size": "1"}, {"size": "960"}, {"size": "320"}]}}}, "dtype": {"type": "DT_HALF"}}}, {"name": "StatefulPartitionedCall/sequential_1/mobilenetv2_1.00_224_1/block_16_project_BN_1/batchnorm/mul", "op": "Const", "attr": {"value": {"tensor": {"dtype": "DT_FLOAT", "tensorShape": {"dim": [{"size": "320"}]}}}, "dtype": {"type": "DT_FLOAT"}}}, {"name": "StatefulPartitionedCall/sequential_1/mobilenetv2_1.00_224_1/block_16_project_BN_1/batchnorm/sub", "op": "Const", "attr": {"dtype": {"type": "DT_FLOAT"}, "value": {"tensor": {"dtype": "DT_FLOAT", "tensorShape": {"dim": [{"size": "320"}]}}}}}, {"name": "StatefulPartitionedCall/sequential_1/mobilenetv2_1.00_224_1/Conv_1_1/convolution/Cast", "op": "Const", "attr": {"value": {"tensor": {"dtype": "DT_HALF", "tensorShape": {"dim": [{"size": "1"}, {"size": "1"}, {"size": "320"}, {"size": "1280"}]}}}, "dtype": {"type": "DT_HALF"}}}, {"name": "StatefulPartitionedCall/sequential_1/mobilenetv2_1.00_224_1/Conv_1_bn_1/batchnorm/mul", "op": "Const", "attr": {"value": {"tensor": {"dtype": "DT_FLOAT", "tensorShape": {"dim": [{"size": "1280"}]}}}, "dtype": {"type": "DT_FLOAT"}}}, {"name": "StatefulPartitionedCall/sequential_1/mobilenetv2_1.00_224_1/Conv_1_bn_1/batchnorm/sub", "op": "Const", "attr": {"value": {"tensor": {"dtype": "DT_FLOAT", "tensorShape": {"dim": [{"size": "1280"}]}}}, "dtype": {"type": "DT_FLOAT"}}}, {"name": "StatefulPartitionedCall/sequential_1/conv2d_1/convolution/Cast", "op": "Const", "attr": {"value": {"tensor": {"dtype": "DT_HALF", "tensorShape": {"dim": [{"size": "3"}, {"size": "3"}, {"size": "1280"}, {"size": "64"}]}}}, "dtype": {"type": "DT_HALF"}}}, {"name": "StatefulPartitionedCall/sequential_1/conv2d_1/Squeeze", "op": "Const", "attr": {"value": {"tensor": {"dtype": "DT_HALF", "tensorShape": {"dim": [{"size": "64"}]}}}, "dtype": {"type": "DT_HALF"}}}, {"name": "StatefulPartitionedCall/sequential_1/batch_normalization_1/batchnorm/mul", "op": "Const", "attr": {"dtype": {"type": "DT_FLOAT"}, "value": {"tensor": {"dtype": "DT_FLOAT", "tensorShape": {"dim": [{"size": "64"}]}}}}}, {"name": "StatefulPartitionedCall/sequential_1/batch_normalization_1/batchnorm/sub", "op": "Const", "attr": {"dtype": {"type": "DT_FLOAT"}, "value": {"tensor": {"dtype": "DT_FLOAT", "tensorShape": {"dim": [{"size": "64"}]}}}}}, {"name": "StatefulPartitionedCall/sequential_1/global_average_pooling2d_1/Mean/reduction_indices", "op": "Const", "attr": {"dtype": {"type": "DT_INT32"}, "value": {"tensor": {"dtype": "DT_INT32", "tensorShape": {"dim": [{"size": "2"}]}}}}}, {"name": "StatefulPartitionedCall/sequential_1/dense_1/Cast/Cast", "op": "Const", "attr": {"value": {"tensor": {"dtype": "DT_HALF", "tensorShape": {"dim": [{"size": "64"}, {"size": "256"}]}}}, "dtype": {"type": "DT_HALF"}}}, {"name": "StatefulPartitionedCall/sequential_1/dense_1/BiasAdd/Cast", "op": "Const", "attr": {"dtype": {"type": "DT_HALF"}, "value": {"tensor": {"dtype": "DT_HALF", "tensorShape": {"dim": [{"size": "256"}]}}}}}, {"name": "StatefulPartitionedCall/sequential_1/dense_1_2/Cast/ReadVariableOp", "op": "Const", "attr": {"value": {"tensor": {"dtype": "DT_FLOAT", "tensorShape": {"dim": [{"size": "256"}, {"size": "12"}]}}}, "dtype": {"type": "DT_FLOAT"}}}, {"name": "StatefulPartitionedCall/sequential_1/dense_1_2/BiasAdd/ReadVariableOp", "op": "Const", "attr": {"dtype": {"type": "DT_FLOAT"}, "value": {"tensor": {"dtype": "DT_FLOAT", "tensorShape": {"dim": [{"size": "12"}]}}}}}, {"name": "input_layer_1", "op": "Placeholder", "attr": {"dtype": {"type": "DT_FLOAT"}, "shape": {"shape": {"dim": [{"size": "-1"}, {"size": "224"}, {"size": "224"}, {"size": "3"}]}}}}, {"name": "StatefulPartitionedCall/sequential_1/mobilenetv2_1.00_224_1/Cast", "op": "Cast", "input": ["input_layer_1"], "attr": {"Truncate": {"b": false}, "SrcT": {"type": "DT_FLOAT"}, "DstT": {"type": "DT_HALF"}}}, {"name": "StatefulPartitionedCall/sequential_1/mobilenetv2_1.00_224_1/Conv1_1/convolution", "op": "Conv2D", "input": ["StatefulPartitionedCall/sequential_1/mobilenetv2_1.00_224_1/Cast", "StatefulPartitionedCall/sequential_1/mobilenetv2_1.00_224_1/Conv1_1/convolution/Cast"], "device": "/device:CPU:0", "attr": {"T": {"type": "DT_HALF"}, "explicit_paddings": {"list": {}}, "padding": {"s": "U0FNRQ=="}, "strides": {"list": {"i": ["1", "2", "2", "1"]}}, "use_cudnn_on_gpu": {"b": true}, "dilations": {"list": {"i": ["1", "1", "1", "1"]}}, "data_format": {"s": "TkhXQw=="}}}, {"name": "StatefulPartitionedCall/sequential_1/mobilenetv2_1.00_224_1/bn_Conv1_1/Cast", "op": "Cast", "input": ["StatefulPartitionedCall/sequential_1/mobilenetv2_1.00_224_1/Conv1_1/convolution"], "attr": {"SrcT": {"type": "DT_HALF"}, "Truncate": {"b": false}, "DstT": {"type": "DT_FLOAT"}}}, {"name": "StatefulPartitionedCall/sequential_1/mobilenetv2_1.00_224_1/bn_Conv1_1/batchnorm/mul_1", "op": "Mul", "input": ["StatefulPartitionedCall/sequential_1/mobilenetv2_1.00_224_1/bn_Conv1_1/Cast", "StatefulPartitionedCall/sequential_1/mobilenetv2_1.00_224_1/bn_Conv1_1/batchnorm/mul"], "attr": {"T": {"type": "DT_FLOAT"}}}, {"name": "StatefulPartitionedCall/sequential_1/mobilenetv2_1.00_224_1/bn_Conv1_1/batchnorm/add_1", "op": "AddV2", "input": ["StatefulPartitionedCall/sequential_1/mobilenetv2_1.00_224_1/bn_Conv1_1/batchnorm/mul_1", "StatefulPartitionedCall/sequential_1/mobilenetv2_1.00_224_1/bn_Conv1_1/batchnorm/sub"], "attr": {"T": {"type": "DT_FLOAT"}}}, {"name": "StatefulPartitionedCall/sequential_1/mobilenetv2_1.00_224_1/bn_Conv1_1/Cast_5", "op": "Cast", "input": ["StatefulPartitionedCall/sequential_1/mobilenetv2_1.00_224_1/bn_Conv1_1/batchnorm/add_1"], "attr": {"Truncate": {"b": false}, "DstT": {"type": "DT_HALF"}, "SrcT": {"type": "DT_FLOAT"}}}, {"name": "StatefulPartitionedCall/sequential_1/mobilenetv2_1.00_224_1/Conv1_relu_1/Relu6", "op": "Relu6", "input": ["StatefulPartitionedCall/sequential_1/mobilenetv2_1.00_224_1/bn_Conv1_1/Cast_5"], "attr": {"T": {"type": "DT_HALF"}}}, {"name": "StatefulPartitionedCall/sequential_1/mobilenetv2_1.00_224_1/expanded_conv_depthwise_1/depthwise", "op": "DepthwiseConv2dNative", "input": ["StatefulPartitionedCall/sequential_1/mobilenetv2_1.00_224_1/Conv1_relu_1/Relu6", "StatefulPartitionedCall/sequential_1/mobilenetv2_1.00_224_1/expanded_conv_depthwise_1/depthwise/Cast"], "attr": {"explicit_paddings": {"list": {}}, "data_format": {"s": "TkhXQw=="}, "padding": {"s": "U0FNRQ=="}, "T": {"type": "DT_HALF"}, "strides": {"list": {"i": ["1", "1", "1", "1"]}}, "dilations": {"list": {"i": ["1", "1", "1", "1"]}}}}, {"name": "StatefulPartitionedCall/sequential_1/mobilenetv2_1.00_224_1/expanded_conv_depthwise_BN_1/Cast", "op": "Cast", "input": ["StatefulPartitionedCall/sequential_1/mobilenetv2_1.00_224_1/expanded_conv_depthwise_1/depthwise"], "attr": {"Truncate": {"b": false}, "DstT": {"type": "DT_FLOAT"}, "SrcT": {"type": "DT_HALF"}}}, {"name": "StatefulPartitionedCall/sequential_1/mobilenetv2_1.00_224_1/expanded_conv_depthwise_BN_1/batchnorm/mul_1", "op": "Mul", "input": ["StatefulPartitionedCall/sequential_1/mobilenetv2_1.00_224_1/expanded_conv_depthwise_BN_1/Cast", "StatefulPartitionedCall/sequential_1/mobilenetv2_1.00_224_1/expanded_conv_depthwise_BN_1/batchnorm/mul"], "attr": {"T": {"type": "DT_FLOAT"}}}, {"name": "StatefulPartitionedCall/sequential_1/mobilenetv2_1.00_224_1/expanded_conv_depthwise_BN_1/batchnorm/add_1", "op": "AddV2", "input": ["StatefulPartitionedCall/sequential_1/mobilenetv2_1.00_224_1/expanded_conv_depthwise_BN_1/batchnorm/mul_1", "StatefulPartitionedCall/sequential_1/mobilenetv2_1.00_224_1/expanded_conv_depthwise_BN_1/batchnorm/sub"], "attr": {"T": {"type": "DT_FLOAT"}}}, {"name": "StatefulPartitionedCall/sequential_1/mobilenetv2_1.00_224_1/expanded_conv_depthwise_BN_1/Cast_5", "op": "Cast", "input": ["StatefulPartitionedCall/sequential_1/mobilenetv2_1.00_224_1/expanded_conv_depthwise_BN_1/batchnorm/add_1"], "attr": {"Truncate": {"b": false}, "SrcT": {"type": "DT_FLOAT"}, "DstT": {"type": "DT_HALF"}}}, {"name": "StatefulPartitionedCall/sequential_1/mobilenetv2_1.00_224_1/expanded_conv_depthwise_relu_1/Relu6", "op": "Relu6", "input": ["StatefulPartitionedCall/sequential_1/mobilenetv2_1.00_224_1/expanded_conv_depthwise_BN_1/Cast_5"], "attr": {"T": {"type": "DT_HALF"}}}, {"name": "StatefulPartitionedCall/sequential_1/mobilenetv2_1.00_224_1/expanded_conv_project_1/convolution", "op": "Conv2D", "input": ["StatefulPartitionedCall/sequential_1/mobilenetv2_1.00_224_1/expanded_conv_depthwise_relu_1/Relu6", "StatefulPartitionedCall/sequential_1/mobilenetv2_1.00_224_1/expanded_conv_project_1/convolution/Cast"], "device": "/device:CPU:0", "attr": {"use_cudnn_on_gpu": {"b": true}, "padding": {"s": "U0FNRQ=="}, "explicit_paddings": {"list": {}}, "dilations": {"list": {"i": ["1", "1", "1", "1"]}}, "data_format": {"s": "TkhXQw=="}, "strides": {"list": {"i": ["1", "1", "1", "1"]}}, "T": {"type": "DT_HALF"}}}, {"name": "StatefulPartitionedCall/sequential_1/mobilenetv2_1.00_224_1/expanded_conv_project_BN_1/Cast", "op": "Cast", "input": ["StatefulPartitionedCall/sequential_1/mobilenetv2_1.00_224_1/expanded_conv_project_1/convolution"], "attr": {"DstT": {"type": "DT_FLOAT"}, "Truncate": {"b": false}, "SrcT": {"type": "DT_HALF"}}}, {"name": "StatefulPartitionedCall/sequential_1/mobilenetv2_1.00_224_1/expanded_conv_project_BN_1/batchnorm/mul_1", "op": "Mul", "input": ["StatefulPartitionedCall/sequential_1/mobilenetv2_1.00_224_1/expanded_conv_project_BN_1/Cast", "StatefulPartitionedCall/sequential_1/mobilenetv2_1.00_224_1/expanded_conv_project_BN_1/batchnorm/mul"], "attr": {"T": {"type": "DT_FLOAT"}}}, {"name": "StatefulPartitionedCall/sequential_1/mobilenetv2_1.00_224_1/expanded_conv_project_BN_1/batchnorm/add_1", "op": "AddV2", "input": ["StatefulPartitionedCall/sequential_1/mobilenetv2_1.00_224_1/expanded_conv_project_BN_1/batchnorm/mul_1", "StatefulPartitionedCall/sequential_1/mobilenetv2_1.00_224_1/expanded_conv_project_BN_1/batchnorm/sub"], "attr": {"T": {"type": "DT_FLOAT"}}}, {"name": "StatefulPartitionedCall/sequential_1/mobilenetv2_1.00_224_1/expanded_conv_project_BN_1/Cast_5", "op": "Cast", "input": ["StatefulPartitionedCall/sequential_1/mobilenetv2_1.00_224_1/expanded_conv_project_BN_1/batchnorm/add_1"], "attr": {"DstT": {"type": "DT_HALF"}, "Truncate": {"b": false}, "SrcT": {"type": "DT_FLOAT"}}}, {"name": "StatefulPartitionedCall/sequential_1/mobilenetv2_1.00_224_1/block_1_expand_1/convolution", "op": "Conv2D", "input": ["StatefulPartitionedCall/sequential_1/mobilenetv2_1.00_224_1/expanded_conv_project_BN_1/Cast_5", "StatefulPartitionedCall/sequential_1/mobilenetv2_1.00_224_1/block_1_expand_1/convolution/Cast"], "device": "/device:CPU:0", "attr": {"strides": {"list": {"i": ["1", "1", "1", "1"]}}, "data_format": {"s": "TkhXQw=="}, "padding": {"s": "U0FNRQ=="}, "T": {"type": "DT_HALF"}, "dilations": {"list": {"i": ["1", "1", "1", "1"]}}, "use_cudnn_on_gpu": {"b": true}, "explicit_paddings": {"list": {}}}}, {"name": "StatefulPartitionedCall/sequential_1/mobilenetv2_1.00_224_1/block_1_expand_BN_1/Cast", "op": "Cast", "input": ["StatefulPartitionedCall/sequential_1/mobilenetv2_1.00_224_1/block_1_expand_1/convolution"], "attr": {"Truncate": {"b": false}, "SrcT": {"type": "DT_HALF"}, "DstT": {"type": "DT_FLOAT"}}}, {"name": "StatefulPartitionedCall/sequential_1/mobilenetv2_1.00_224_1/block_1_expand_BN_1/batchnorm/mul_1", "op": "Mul", "input": ["StatefulPartitionedCall/sequential_1/mobilenetv2_1.00_224_1/block_1_expand_BN_1/Cast", "StatefulPartitionedCall/sequential_1/mobilenetv2_1.00_224_1/block_1_expand_BN_1/batchnorm/mul"], "attr": {"T": {"type": "DT_FLOAT"}}}, {"name": "StatefulPartitionedCall/sequential_1/mobilenetv2_1.00_224_1/block_1_expand_BN_1/batchnorm/add_1", "op": "AddV2", "input": ["StatefulPartitionedCall/sequential_1/mobilenetv2_1.00_224_1/block_1_expand_BN_1/batchnorm/mul_1", "StatefulPartitionedCall/sequential_1/mobilenetv2_1.00_224_1/block_1_expand_BN_1/batchnorm/sub"], "attr": {"T": {"type": "DT_FLOAT"}}}, {"name": "StatefulPartitionedCall/sequential_1/mobilenetv2_1.00_224_1/block_1_expand_BN_1/Cast_5", "op": "Cast", "input": ["StatefulPartitionedCall/sequential_1/mobilenetv2_1.00_224_1/block_1_expand_BN_1/batchnorm/add_1"], "attr": {"SrcT": {"type": "DT_FLOAT"}, "DstT": {"type": "DT_HALF"}, "Truncate": {"b": false}}}, {"name": "StatefulPartitionedCall/sequential_1/mobilenetv2_1.00_224_1/block_1_expand_relu_1/Relu6", "op": "Relu6", "input": ["StatefulPartitionedCall/sequential_1/mobilenetv2_1.00_224_1/block_1_expand_BN_1/Cast_5"], "attr": {"T": {"type": "DT_HALF"}}}, {"name": "StatefulPartitionedCall/sequential_1/mobilenetv2_1.00_224_1/block_1_pad_1/Pad", "op": "Pad", "input": ["StatefulPartitionedCall/sequential_1/mobilenetv2_1.00_224_1/block_1_expand_relu_1/Relu6", "StatefulPartitionedCall/sequential_1/mobilenetv2_1.00_224_1/block_1_pad_1/Const"], "attr": {"T": {"type": "DT_HALF"}, "Tpaddings": {"type": "DT_INT32"}}}, {"name": "StatefulPartitionedCall/sequential_1/mobilenetv2_1.00_224_1/block_1_depthwise_1/depthwise", "op": "DepthwiseConv2dNative", "input": ["StatefulPartitionedCall/sequential_1/mobilenetv2_1.00_224_1/block_1_pad_1/Pad", "StatefulPartitionedCall/sequential_1/mobilenetv2_1.00_224_1/block_1_depthwise_1/depthwise/Cast"], "attr": {"T": {"type": "DT_HALF"}, "data_format": {"s": "TkhXQw=="}, "strides": {"list": {"i": ["1", "2", "2", "1"]}}, "explicit_paddings": {"list": {}}, "dilations": {"list": {"i": ["1", "1", "1", "1"]}}, "padding": {"s": "VkFMSUQ="}}}, {"name": "StatefulPartitionedCall/sequential_1/mobilenetv2_1.00_224_1/block_1_depthwise_BN_1/Cast", "op": "Cast", "input": ["StatefulPartitionedCall/sequential_1/mobilenetv2_1.00_224_1/block_1_depthwise_1/depthwise"], "attr": {"SrcT": {"type": "DT_HALF"}, "Truncate": {"b": false}, "DstT": {"type": "DT_FLOAT"}}}, {"name": "StatefulPartitionedCall/sequential_1/mobilenetv2_1.00_224_1/block_1_depthwise_BN_1/batchnorm/mul_1", "op": "Mul", "input": ["StatefulPartitionedCall/sequential_1/mobilenetv2_1.00_224_1/block_1_depthwise_BN_1/Cast", "StatefulPartitionedCall/sequential_1/mobilenetv2_1.00_224_1/block_1_depthwise_BN_1/batchnorm/mul"], "attr": {"T": {"type": "DT_FLOAT"}}}, {"name": "StatefulPartitionedCall/sequential_1/mobilenetv2_1.00_224_1/block_1_depthwise_BN_1/batchnorm/add_1", "op": "AddV2", "input": ["StatefulPartitionedCall/sequential_1/mobilenetv2_1.00_224_1/block_1_depthwise_BN_1/batchnorm/mul_1", "StatefulPartitionedCall/sequential_1/mobilenetv2_1.00_224_1/block_1_depthwise_BN_1/batchnorm/sub"], "attr": {"T": {"type": "DT_FLOAT"}}}, {"name": "StatefulPartitionedCall/sequential_1/mobilenetv2_1.00_224_1/block_1_depthwise_BN_1/Cast_5", "op": "Cast", "input": ["StatefulPartitionedCall/sequential_1/mobilenetv2_1.00_224_1/block_1_depthwise_BN_1/batchnorm/add_1"], "attr": {"Truncate": {"b": false}, "SrcT": {"type": "DT_FLOAT"}, "DstT": {"type": "DT_HALF"}}}, {"name": "StatefulPartitionedCall/sequential_1/mobilenetv2_1.00_224_1/block_1_depthwise_relu_1/Relu6", "op": "Relu6", "input": ["StatefulPartitionedCall/sequential_1/mobilenetv2_1.00_224_1/block_1_depthwise_BN_1/Cast_5"], "attr": {"T": {"type": "DT_HALF"}}}, {"name": "StatefulPartitionedCall/sequential_1/mobilenetv2_1.00_224_1/block_1_project_1/convolution", "op": "Conv2D", "input": ["StatefulPartitionedCall/sequential_1/mobilenetv2_1.00_224_1/block_1_depthwise_relu_1/Relu6", "StatefulPartitionedCall/sequential_1/mobilenetv2_1.00_224_1/block_1_project_1/convolution/Cast"], "device": "/device:CPU:0", "attr": {"padding": {"s": "U0FNRQ=="}, "strides": {"list": {"i": ["1", "1", "1", "1"]}}, "dilations": {"list": {"i": ["1", "1", "1", "1"]}}, "explicit_paddings": {"list": {}}, "use_cudnn_on_gpu": {"b": true}, "T": {"type": "DT_HALF"}, "data_format": {"s": "TkhXQw=="}}}, {"name": "StatefulPartitionedCall/sequential_1/mobilenetv2_1.00_224_1/block_1_project_BN_1/Cast", "op": "Cast", "input": ["StatefulPartitionedCall/sequential_1/mobilenetv2_1.00_224_1/block_1_project_1/convolution"], "attr": {"DstT": {"type": "DT_FLOAT"}, "SrcT": {"type": "DT_HALF"}, "Truncate": {"b": false}}}, {"name": "StatefulPartitionedCall/sequential_1/mobilenetv2_1.00_224_1/block_1_project_BN_1/batchnorm/mul_1", "op": "Mul", "input": ["StatefulPartitionedCall/sequential_1/mobilenetv2_1.00_224_1/block_1_project_BN_1/Cast", "StatefulPartitionedCall/sequential_1/mobilenetv2_1.00_224_1/block_1_project_BN_1/batchnorm/mul"], "attr": {"T": {"type": "DT_FLOAT"}}}, {"name": "StatefulPartitionedCall/sequential_1/mobilenetv2_1.00_224_1/block_1_project_BN_1/batchnorm/add_1", "op": "AddV2", "input": ["StatefulPartitionedCall/sequential_1/mobilenetv2_1.00_224_1/block_1_project_BN_1/batchnorm/mul_1", "StatefulPartitionedCall/sequential_1/mobilenetv2_1.00_224_1/block_1_project_BN_1/batchnorm/sub"], "attr": {"T": {"type": "DT_FLOAT"}}}, {"name": "StatefulPartitionedCall/sequential_1/mobilenetv2_1.00_224_1/block_1_project_BN_1/Cast_5", "op": "Cast", "input": ["StatefulPartitionedCall/sequential_1/mobilenetv2_1.00_224_1/block_1_project_BN_1/batchnorm/add_1"], "attr": {"Truncate": {"b": false}, "SrcT": {"type": "DT_FLOAT"}, "DstT": {"type": "DT_HALF"}}}, {"name": "StatefulPartitionedCall/sequential_1/mobilenetv2_1.00_224_1/block_2_expand_1/convolution", "op": "Conv2D", "input": ["StatefulPartitionedCall/sequential_1/mobilenetv2_1.00_224_1/block_1_project_BN_1/Cast_5", "StatefulPartitionedCall/sequential_1/mobilenetv2_1.00_224_1/block_2_expand_1/convolution/Cast"], "device": "/device:CPU:0", "attr": {"T": {"type": "DT_HALF"}, "data_format": {"s": "TkhXQw=="}, "dilations": {"list": {"i": ["1", "1", "1", "1"]}}, "use_cudnn_on_gpu": {"b": true}, "padding": {"s": "U0FNRQ=="}, "explicit_paddings": {"list": {}}, "strides": {"list": {"i": ["1", "1", "1", "1"]}}}}, {"name": "StatefulPartitionedCall/sequential_1/mobilenetv2_1.00_224_1/block_2_expand_BN_1/Cast", "op": "Cast", "input": ["StatefulPartitionedCall/sequential_1/mobilenetv2_1.00_224_1/block_2_expand_1/convolution"], "attr": {"Truncate": {"b": false}, "SrcT": {"type": "DT_HALF"}, "DstT": {"type": "DT_FLOAT"}}}, {"name": "StatefulPartitionedCall/sequential_1/mobilenetv2_1.00_224_1/block_2_expand_BN_1/batchnorm/mul_1", "op": "Mul", "input": ["StatefulPartitionedCall/sequential_1/mobilenetv2_1.00_224_1/block_2_expand_BN_1/Cast", "StatefulPartitionedCall/sequential_1/mobilenetv2_1.00_224_1/block_2_expand_BN_1/batchnorm/mul"], "attr": {"T": {"type": "DT_FLOAT"}}}, {"name": "StatefulPartitionedCall/sequential_1/mobilenetv2_1.00_224_1/block_2_expand_BN_1/batchnorm/add_1", "op": "AddV2", "input": ["StatefulPartitionedCall/sequential_1/mobilenetv2_1.00_224_1/block_2_expand_BN_1/batchnorm/mul_1", "StatefulPartitionedCall/sequential_1/mobilenetv2_1.00_224_1/block_2_expand_BN_1/batchnorm/sub"], "attr": {"T": {"type": "DT_FLOAT"}}}, {"name": "StatefulPartitionedCall/sequential_1/mobilenetv2_1.00_224_1/block_2_expand_BN_1/Cast_5", "op": "Cast", "input": ["StatefulPartitionedCall/sequential_1/mobilenetv2_1.00_224_1/block_2_expand_BN_1/batchnorm/add_1"], "attr": {"Truncate": {"b": false}, "SrcT": {"type": "DT_FLOAT"}, "DstT": {"type": "DT_HALF"}}}, {"name": "StatefulPartitionedCall/sequential_1/mobilenetv2_1.00_224_1/block_2_expand_relu_1/Relu6", "op": "Relu6", "input": ["StatefulPartitionedCall/sequential_1/mobilenetv2_1.00_224_1/block_2_expand_BN_1/Cast_5"], "attr": {"T": {"type": "DT_HALF"}}}, {"name": "StatefulPartitionedCall/sequential_1/mobilenetv2_1.00_224_1/block_2_depthwise_1/depthwise", "op": "DepthwiseConv2dNative", "input": ["StatefulPartitionedCall/sequential_1/mobilenetv2_1.00_224_1/block_2_expand_relu_1/Relu6", "StatefulPartitionedCall/sequential_1/mobilenetv2_1.00_224_1/block_2_depthwise_1/depthwise/Cast"], "attr": {"strides": {"list": {"i": ["1", "1", "1", "1"]}}, "dilations": {"list": {"i": ["1", "1", "1", "1"]}}, "data_format": {"s": "TkhXQw=="}, "explicit_paddings": {"list": {}}, "padding": {"s": "U0FNRQ=="}, "T": {"type": "DT_HALF"}}}, {"name": "StatefulPartitionedCall/sequential_1/mobilenetv2_1.00_224_1/block_2_depthwise_BN_1/Cast", "op": "Cast", "input": ["StatefulPartitionedCall/sequential_1/mobilenetv2_1.00_224_1/block_2_depthwise_1/depthwise"], "attr": {"Truncate": {"b": false}, "DstT": {"type": "DT_FLOAT"}, "SrcT": {"type": "DT_HALF"}}}, {"name": "StatefulPartitionedCall/sequential_1/mobilenetv2_1.00_224_1/block_2_depthwise_BN_1/batchnorm/mul_1", "op": "Mul", "input": ["StatefulPartitionedCall/sequential_1/mobilenetv2_1.00_224_1/block_2_depthwise_BN_1/Cast", "StatefulPartitionedCall/sequential_1/mobilenetv2_1.00_224_1/block_2_depthwise_BN_1/batchnorm/mul"], "attr": {"T": {"type": "DT_FLOAT"}}}, {"name": "StatefulPartitionedCall/sequential_1/mobilenetv2_1.00_224_1/block_2_depthwise_BN_1/batchnorm/add_1", "op": "AddV2", "input": ["StatefulPartitionedCall/sequential_1/mobilenetv2_1.00_224_1/block_2_depthwise_BN_1/batchnorm/mul_1", "StatefulPartitionedCall/sequential_1/mobilenetv2_1.00_224_1/block_2_depthwise_BN_1/batchnorm/sub"], "attr": {"T": {"type": "DT_FLOAT"}}}, {"name": "StatefulPartitionedCall/sequential_1/mobilenetv2_1.00_224_1/block_2_depthwise_BN_1/Cast_5", "op": "Cast", "input": ["StatefulPartitionedCall/sequential_1/mobilenetv2_1.00_224_1/block_2_depthwise_BN_1/batchnorm/add_1"], "attr": {"SrcT": {"type": "DT_FLOAT"}, "DstT": {"type": "DT_HALF"}, "Truncate": {"b": false}}}, {"name": "StatefulPartitionedCall/sequential_1/mobilenetv2_1.00_224_1/block_2_depthwise_relu_1/Relu6", "op": "Relu6", "input": ["StatefulPartitionedCall/sequential_1/mobilenetv2_1.00_224_1/block_2_depthwise_BN_1/Cast_5"], "attr": {"T": {"type": "DT_HALF"}}}, {"name": "StatefulPartitionedCall/sequential_1/mobilenetv2_1.00_224_1/block_2_project_1/convolution", "op": "Conv2D", "input": ["StatefulPartitionedCall/sequential_1/mobilenetv2_1.00_224_1/block_2_depthwise_relu_1/Relu6", "StatefulPartitionedCall/sequential_1/mobilenetv2_1.00_224_1/block_2_project_1/convolution/Cast"], "device": "/device:CPU:0", "attr": {"use_cudnn_on_gpu": {"b": true}, "T": {"type": "DT_HALF"}, "data_format": {"s": "TkhXQw=="}, "explicit_paddings": {"list": {}}, "padding": {"s": "U0FNRQ=="}, "dilations": {"list": {"i": ["1", "1", "1", "1"]}}, "strides": {"list": {"i": ["1", "1", "1", "1"]}}}}, {"name": "StatefulPartitionedCall/sequential_1/mobilenetv2_1.00_224_1/block_2_project_BN_1/Cast", "op": "Cast", "input": ["StatefulPartitionedCall/sequential_1/mobilenetv2_1.00_224_1/block_2_project_1/convolution"], "attr": {"SrcT": {"type": "DT_HALF"}, "Truncate": {"b": false}, "DstT": {"type": "DT_FLOAT"}}}, {"name": "StatefulPartitionedCall/sequential_1/mobilenetv2_1.00_224_1/block_2_project_BN_1/batchnorm/mul_1", "op": "Mul", "input": ["StatefulPartitionedCall/sequential_1/mobilenetv2_1.00_224_1/block_2_project_BN_1/Cast", "StatefulPartitionedCall/sequential_1/mobilenetv2_1.00_224_1/block_2_project_BN_1/batchnorm/mul"], "attr": {"T": {"type": "DT_FLOAT"}}}, {"name": "StatefulPartitionedCall/sequential_1/mobilenetv2_1.00_224_1/block_2_project_BN_1/batchnorm/add_1", "op": "AddV2", "input": ["StatefulPartitionedCall/sequential_1/mobilenetv2_1.00_224_1/block_2_project_BN_1/batchnorm/mul_1", "StatefulPartitionedCall/sequential_1/mobilenetv2_1.00_224_1/block_2_project_BN_1/batchnorm/sub"], "attr": {"T": {"type": "DT_FLOAT"}}}, {"name": "StatefulPartitionedCall/sequential_1/mobilenetv2_1.00_224_1/block_2_project_BN_1/Cast_5", "op": "Cast", "input": ["StatefulPartitionedCall/sequential_1/mobilenetv2_1.00_224_1/block_2_project_BN_1/batchnorm/add_1"], "attr": {"Truncate": {"b": false}, "SrcT": {"type": "DT_FLOAT"}, "DstT": {"type": "DT_HALF"}}}, {"name": "StatefulPartitionedCall/sequential_1/mobilenetv2_1.00_224_1/block_2_add_1/Add", "op": "AddV2", "input": ["StatefulPartitionedCall/sequential_1/mobilenetv2_1.00_224_1/block_1_project_BN_1/Cast_5", "StatefulPartitionedCall/sequential_1/mobilenetv2_1.00_224_1/block_2_project_BN_1/Cast_5"], "attr": {"T": {"type": "DT_HALF"}}}, {"name": "StatefulPartitionedCall/sequential_1/mobilenetv2_1.00_224_1/block_3_expand_1/convolution", "op": "Conv2D", "input": ["StatefulPartitionedCall/sequential_1/mobilenetv2_1.00_224_1/block_2_add_1/Add", "StatefulPartitionedCall/sequential_1/mobilenetv2_1.00_224_1/block_3_expand_1/convolution/Cast"], "device": "/device:CPU:0", "attr": {"explicit_paddings": {"list": {}}, "padding": {"s": "U0FNRQ=="}, "dilations": {"list": {"i": ["1", "1", "1", "1"]}}, "data_format": {"s": "TkhXQw=="}, "strides": {"list": {"i": ["1", "1", "1", "1"]}}, "T": {"type": "DT_HALF"}, "use_cudnn_on_gpu": {"b": true}}}, {"name": "StatefulPartitionedCall/sequential_1/mobilenetv2_1.00_224_1/block_3_expand_BN_1/Cast", "op": "Cast", "input": ["StatefulPartitionedCall/sequential_1/mobilenetv2_1.00_224_1/block_3_expand_1/convolution"], "attr": {"SrcT": {"type": "DT_HALF"}, "DstT": {"type": "DT_FLOAT"}, "Truncate": {"b": false}}}, {"name": "StatefulPartitionedCall/sequential_1/mobilenetv2_1.00_224_1/block_3_expand_BN_1/batchnorm/mul_1", "op": "Mul", "input": ["StatefulPartitionedCall/sequential_1/mobilenetv2_1.00_224_1/block_3_expand_BN_1/Cast", "StatefulPartitionedCall/sequential_1/mobilenetv2_1.00_224_1/block_3_expand_BN_1/batchnorm/mul"], "attr": {"T": {"type": "DT_FLOAT"}}}, {"name": "StatefulPartitionedCall/sequential_1/mobilenetv2_1.00_224_1/block_3_expand_BN_1/batchnorm/add_1", "op": "AddV2", "input": ["StatefulPartitionedCall/sequential_1/mobilenetv2_1.00_224_1/block_3_expand_BN_1/batchnorm/mul_1", "StatefulPartitionedCall/sequential_1/mobilenetv2_1.00_224_1/block_3_expand_BN_1/batchnorm/sub"], "attr": {"T": {"type": "DT_FLOAT"}}}, {"name": "StatefulPartitionedCall/sequential_1/mobilenetv2_1.00_224_1/block_3_expand_BN_1/Cast_5", "op": "Cast", "input": ["StatefulPartitionedCall/sequential_1/mobilenetv2_1.00_224_1/block_3_expand_BN_1/batchnorm/add_1"], "attr": {"Truncate": {"b": false}, "DstT": {"type": "DT_HALF"}, "SrcT": {"type": "DT_FLOAT"}}}, {"name": "StatefulPartitionedCall/sequential_1/mobilenetv2_1.00_224_1/block_3_expand_relu_1/Relu6", "op": "Relu6", "input": ["StatefulPartitionedCall/sequential_1/mobilenetv2_1.00_224_1/block_3_expand_BN_1/Cast_5"], "attr": {"T": {"type": "DT_HALF"}}}, {"name": "StatefulPartitionedCall/sequential_1/mobilenetv2_1.00_224_1/block_3_pad_1/Pad", "op": "Pad", "input": ["StatefulPartitionedCall/sequential_1/mobilenetv2_1.00_224_1/block_3_expand_relu_1/Relu6", "StatefulPartitionedCall/sequential_1/mobilenetv2_1.00_224_1/block_3_pad_1/Const"], "attr": {"Tpaddings": {"type": "DT_INT32"}, "T": {"type": "DT_HALF"}}}, {"name": "StatefulPartitionedCall/sequential_1/mobilenetv2_1.00_224_1/block_3_depthwise_1/depthwise", "op": "DepthwiseConv2dNative", "input": ["StatefulPartitionedCall/sequential_1/mobilenetv2_1.00_224_1/block_3_pad_1/Pad", "StatefulPartitionedCall/sequential_1/mobilenetv2_1.00_224_1/block_3_depthwise_1/depthwise/Cast"], "attr": {"T": {"type": "DT_HALF"}, "data_format": {"s": "TkhXQw=="}, "explicit_paddings": {"list": {}}, "strides": {"list": {"i": ["1", "2", "2", "1"]}}, "padding": {"s": "VkFMSUQ="}, "dilations": {"list": {"i": ["1", "1", "1", "1"]}}}}, {"name": "StatefulPartitionedCall/sequential_1/mobilenetv2_1.00_224_1/block_3_depthwise_BN_1/Cast", "op": "Cast", "input": ["StatefulPartitionedCall/sequential_1/mobilenetv2_1.00_224_1/block_3_depthwise_1/depthwise"], "attr": {"DstT": {"type": "DT_FLOAT"}, "Truncate": {"b": false}, "SrcT": {"type": "DT_HALF"}}}, {"name": "StatefulPartitionedCall/sequential_1/mobilenetv2_1.00_224_1/block_3_depthwise_BN_1/batchnorm/mul_1", "op": "Mul", "input": ["StatefulPartitionedCall/sequential_1/mobilenetv2_1.00_224_1/block_3_depthwise_BN_1/Cast", "StatefulPartitionedCall/sequential_1/mobilenetv2_1.00_224_1/block_3_depthwise_BN_1/batchnorm/mul"], "attr": {"T": {"type": "DT_FLOAT"}}}, {"name": "StatefulPartitionedCall/sequential_1/mobilenetv2_1.00_224_1/block_3_depthwise_BN_1/batchnorm/add_1", "op": "AddV2", "input": ["StatefulPartitionedCall/sequential_1/mobilenetv2_1.00_224_1/block_3_depthwise_BN_1/batchnorm/mul_1", "StatefulPartitionedCall/sequential_1/mobilenetv2_1.00_224_1/block_3_depthwise_BN_1/batchnorm/sub"], "attr": {"T": {"type": "DT_FLOAT"}}}, {"name": "StatefulPartitionedCall/sequential_1/mobilenetv2_1.00_224_1/block_3_depthwise_BN_1/Cast_5", "op": "Cast", "input": ["StatefulPartitionedCall/sequential_1/mobilenetv2_1.00_224_1/block_3_depthwise_BN_1/batchnorm/add_1"], "attr": {"Truncate": {"b": false}, "SrcT": {"type": "DT_FLOAT"}, "DstT": {"type": "DT_HALF"}}}, {"name": "StatefulPartitionedCall/sequential_1/mobilenetv2_1.00_224_1/block_3_depthwise_relu_1/Relu6", "op": "Relu6", "input": ["StatefulPartitionedCall/sequential_1/mobilenetv2_1.00_224_1/block_3_depthwise_BN_1/Cast_5"], "attr": {"T": {"type": "DT_HALF"}}}, {"name": "StatefulPartitionedCall/sequential_1/mobilenetv2_1.00_224_1/block_3_project_1/convolution", "op": "Conv2D", "input": ["StatefulPartitionedCall/sequential_1/mobilenetv2_1.00_224_1/block_3_depthwise_relu_1/Relu6", "StatefulPartitionedCall/sequential_1/mobilenetv2_1.00_224_1/block_3_project_1/convolution/Cast"], "device": "/device:CPU:0", "attr": {"dilations": {"list": {"i": ["1", "1", "1", "1"]}}, "padding": {"s": "U0FNRQ=="}, "T": {"type": "DT_HALF"}, "data_format": {"s": "TkhXQw=="}, "explicit_paddings": {"list": {}}, "strides": {"list": {"i": ["1", "1", "1", "1"]}}, "use_cudnn_on_gpu": {"b": true}}}, {"name": "StatefulPartitionedCall/sequential_1/mobilenetv2_1.00_224_1/block_3_project_BN_1/Cast", "op": "Cast", "input": ["StatefulPartitionedCall/sequential_1/mobilenetv2_1.00_224_1/block_3_project_1/convolution"], "attr": {"DstT": {"type": "DT_FLOAT"}, "SrcT": {"type": "DT_HALF"}, "Truncate": {"b": false}}}, {"name": "StatefulPartitionedCall/sequential_1/mobilenetv2_1.00_224_1/block_3_project_BN_1/batchnorm/mul_1", "op": "Mul", "input": ["StatefulPartitionedCall/sequential_1/mobilenetv2_1.00_224_1/block_3_project_BN_1/Cast", "StatefulPartitionedCall/sequential_1/mobilenetv2_1.00_224_1/block_3_project_BN_1/batchnorm/mul"], "attr": {"T": {"type": "DT_FLOAT"}}}, {"name": "StatefulPartitionedCall/sequential_1/mobilenetv2_1.00_224_1/block_3_project_BN_1/batchnorm/add_1", "op": "AddV2", "input": ["StatefulPartitionedCall/sequential_1/mobilenetv2_1.00_224_1/block_3_project_BN_1/batchnorm/mul_1", "StatefulPartitionedCall/sequential_1/mobilenetv2_1.00_224_1/block_3_project_BN_1/batchnorm/sub"], "attr": {"T": {"type": "DT_FLOAT"}}}, {"name": "StatefulPartitionedCall/sequential_1/mobilenetv2_1.00_224_1/block_3_project_BN_1/Cast_5", "op": "Cast", "input": ["StatefulPartitionedCall/sequential_1/mobilenetv2_1.00_224_1/block_3_project_BN_1/batchnorm/add_1"], "attr": {"DstT": {"type": "DT_HALF"}, "Truncate": {"b": false}, "SrcT": {"type": "DT_FLOAT"}}}, {"name": "StatefulPartitionedCall/sequential_1/mobilenetv2_1.00_224_1/block_4_expand_1/convolution", "op": "Conv2D", "input": ["StatefulPartitionedCall/sequential_1/mobilenetv2_1.00_224_1/block_3_project_BN_1/Cast_5", "StatefulPartitionedCall/sequential_1/mobilenetv2_1.00_224_1/block_4_expand_1/convolution/Cast"], "device": "/device:CPU:0", "attr": {"padding": {"s": "U0FNRQ=="}, "data_format": {"s": "TkhXQw=="}, "use_cudnn_on_gpu": {"b": true}, "dilations": {"list": {"i": ["1", "1", "1", "1"]}}, "explicit_paddings": {"list": {}}, "strides": {"list": {"i": ["1", "1", "1", "1"]}}, "T": {"type": "DT_HALF"}}}, {"name": "StatefulPartitionedCall/sequential_1/mobilenetv2_1.00_224_1/block_4_expand_BN_1/Cast", "op": "Cast", "input": ["StatefulPartitionedCall/sequential_1/mobilenetv2_1.00_224_1/block_4_expand_1/convolution"], "attr": {"SrcT": {"type": "DT_HALF"}, "Truncate": {"b": false}, "DstT": {"type": "DT_FLOAT"}}}, {"name": "StatefulPartitionedCall/sequential_1/mobilenetv2_1.00_224_1/block_4_expand_BN_1/batchnorm/mul_1", "op": "Mul", "input": ["StatefulPartitionedCall/sequential_1/mobilenetv2_1.00_224_1/block_4_expand_BN_1/Cast", "StatefulPartitionedCall/sequential_1/mobilenetv2_1.00_224_1/block_4_expand_BN_1/batchnorm/mul"], "attr": {"T": {"type": "DT_FLOAT"}}}, {"name": "StatefulPartitionedCall/sequential_1/mobilenetv2_1.00_224_1/block_4_expand_BN_1/batchnorm/add_1", "op": "AddV2", "input": ["StatefulPartitionedCall/sequential_1/mobilenetv2_1.00_224_1/block_4_expand_BN_1/batchnorm/mul_1", "StatefulPartitionedCall/sequential_1/mobilenetv2_1.00_224_1/block_4_expand_BN_1/batchnorm/sub"], "attr": {"T": {"type": "DT_FLOAT"}}}, {"name": "StatefulPartitionedCall/sequential_1/mobilenetv2_1.00_224_1/block_4_expand_BN_1/Cast_5", "op": "Cast", "input": ["StatefulPartitionedCall/sequential_1/mobilenetv2_1.00_224_1/block_4_expand_BN_1/batchnorm/add_1"], "attr": {"Truncate": {"b": false}, "DstT": {"type": "DT_HALF"}, "SrcT": {"type": "DT_FLOAT"}}}, {"name": "StatefulPartitionedCall/sequential_1/mobilenetv2_1.00_224_1/block_4_expand_relu_1/Relu6", "op": "Relu6", "input": ["StatefulPartitionedCall/sequential_1/mobilenetv2_1.00_224_1/block_4_expand_BN_1/Cast_5"], "attr": {"T": {"type": "DT_HALF"}}}, {"name": "StatefulPartitionedCall/sequential_1/mobilenetv2_1.00_224_1/block_4_depthwise_1/depthwise", "op": "DepthwiseConv2dNative", "input": ["StatefulPartitionedCall/sequential_1/mobilenetv2_1.00_224_1/block_4_expand_relu_1/Relu6", "StatefulPartitionedCall/sequential_1/mobilenetv2_1.00_224_1/block_4_depthwise_1/depthwise/Cast"], "attr": {"T": {"type": "DT_HALF"}, "strides": {"list": {"i": ["1", "1", "1", "1"]}}, "explicit_paddings": {"list": {}}, "data_format": {"s": "TkhXQw=="}, "dilations": {"list": {"i": ["1", "1", "1", "1"]}}, "padding": {"s": "U0FNRQ=="}}}, {"name": "StatefulPartitionedCall/sequential_1/mobilenetv2_1.00_224_1/block_4_depthwise_BN_1/Cast", "op": "Cast", "input": ["StatefulPartitionedCall/sequential_1/mobilenetv2_1.00_224_1/block_4_depthwise_1/depthwise"], "attr": {"DstT": {"type": "DT_FLOAT"}, "Truncate": {"b": false}, "SrcT": {"type": "DT_HALF"}}}, {"name": "StatefulPartitionedCall/sequential_1/mobilenetv2_1.00_224_1/block_4_depthwise_BN_1/batchnorm/mul_1", "op": "Mul", "input": ["StatefulPartitionedCall/sequential_1/mobilenetv2_1.00_224_1/block_4_depthwise_BN_1/Cast", "StatefulPartitionedCall/sequential_1/mobilenetv2_1.00_224_1/block_4_depthwise_BN_1/batchnorm/mul"], "attr": {"T": {"type": "DT_FLOAT"}}}, {"name": "StatefulPartitionedCall/sequential_1/mobilenetv2_1.00_224_1/block_4_depthwise_BN_1/batchnorm/add_1", "op": "AddV2", "input": ["StatefulPartitionedCall/sequential_1/mobilenetv2_1.00_224_1/block_4_depthwise_BN_1/batchnorm/mul_1", "StatefulPartitionedCall/sequential_1/mobilenetv2_1.00_224_1/block_4_depthwise_BN_1/batchnorm/sub"], "attr": {"T": {"type": "DT_FLOAT"}}}, {"name": "StatefulPartitionedCall/sequential_1/mobilenetv2_1.00_224_1/block_4_depthwise_BN_1/Cast_5", "op": "Cast", "input": ["StatefulPartitionedCall/sequential_1/mobilenetv2_1.00_224_1/block_4_depthwise_BN_1/batchnorm/add_1"], "attr": {"Truncate": {"b": false}, "DstT": {"type": "DT_HALF"}, "SrcT": {"type": "DT_FLOAT"}}}, {"name": "StatefulPartitionedCall/sequential_1/mobilenetv2_1.00_224_1/block_4_depthwise_relu_1/Relu6", "op": "Relu6", "input": ["StatefulPartitionedCall/sequential_1/mobilenetv2_1.00_224_1/block_4_depthwise_BN_1/Cast_5"], "attr": {"T": {"type": "DT_HALF"}}}, {"name": "StatefulPartitionedCall/sequential_1/mobilenetv2_1.00_224_1/block_4_project_1/convolution", "op": "Conv2D", "input": ["StatefulPartitionedCall/sequential_1/mobilenetv2_1.00_224_1/block_4_depthwise_relu_1/Relu6", "StatefulPartitionedCall/sequential_1/mobilenetv2_1.00_224_1/block_4_project_1/convolution/Cast"], "device": "/device:CPU:0", "attr": {"T": {"type": "DT_HALF"}, "use_cudnn_on_gpu": {"b": true}, "dilations": {"list": {"i": ["1", "1", "1", "1"]}}, "data_format": {"s": "TkhXQw=="}, "explicit_paddings": {"list": {}}, "strides": {"list": {"i": ["1", "1", "1", "1"]}}, "padding": {"s": "U0FNRQ=="}}}, {"name": "StatefulPartitionedCall/sequential_1/mobilenetv2_1.00_224_1/block_4_project_BN_1/Cast", "op": "Cast", "input": ["StatefulPartitionedCall/sequential_1/mobilenetv2_1.00_224_1/block_4_project_1/convolution"], "attr": {"Truncate": {"b": false}, "SrcT": {"type": "DT_HALF"}, "DstT": {"type": "DT_FLOAT"}}}, {"name": "StatefulPartitionedCall/sequential_1/mobilenetv2_1.00_224_1/block_4_project_BN_1/batchnorm/mul_1", "op": "Mul", "input": ["StatefulPartitionedCall/sequential_1/mobilenetv2_1.00_224_1/block_4_project_BN_1/Cast", "StatefulPartitionedCall/sequential_1/mobilenetv2_1.00_224_1/block_4_project_BN_1/batchnorm/mul"], "attr": {"T": {"type": "DT_FLOAT"}}}, {"name": "StatefulPartitionedCall/sequential_1/mobilenetv2_1.00_224_1/block_4_project_BN_1/batchnorm/add_1", "op": "AddV2", "input": ["StatefulPartitionedCall/sequential_1/mobilenetv2_1.00_224_1/block_4_project_BN_1/batchnorm/mul_1", "StatefulPartitionedCall/sequential_1/mobilenetv2_1.00_224_1/block_4_project_BN_1/batchnorm/sub"], "attr": {"T": {"type": "DT_FLOAT"}}}, {"name": "StatefulPartitionedCall/sequential_1/mobilenetv2_1.00_224_1/block_4_project_BN_1/Cast_5", "op": "Cast", "input": ["StatefulPartitionedCall/sequential_1/mobilenetv2_1.00_224_1/block_4_project_BN_1/batchnorm/add_1"], "attr": {"Truncate": {"b": false}, "SrcT": {"type": "DT_FLOAT"}, "DstT": {"type": "DT_HALF"}}}, {"name": "StatefulPartitionedCall/sequential_1/mobilenetv2_1.00_224_1/block_4_add_1/Add", "op": "AddV2", "input": ["StatefulPartitionedCall/sequential_1/mobilenetv2_1.00_224_1/block_3_project_BN_1/Cast_5", "StatefulPartitionedCall/sequential_1/mobilenetv2_1.00_224_1/block_4_project_BN_1/Cast_5"], "attr": {"T": {"type": "DT_HALF"}}}, {"name": "StatefulPartitionedCall/sequential_1/mobilenetv2_1.00_224_1/block_5_expand_1/convolution", "op": "Conv2D", "input": ["StatefulPartitionedCall/sequential_1/mobilenetv2_1.00_224_1/block_4_add_1/Add", "StatefulPartitionedCall/sequential_1/mobilenetv2_1.00_224_1/block_5_expand_1/convolution/Cast"], "device": "/device:CPU:0", "attr": {"T": {"type": "DT_HALF"}, "explicit_paddings": {"list": {}}, "dilations": {"list": {"i": ["1", "1", "1", "1"]}}, "use_cudnn_on_gpu": {"b": true}, "data_format": {"s": "TkhXQw=="}, "padding": {"s": "U0FNRQ=="}, "strides": {"list": {"i": ["1", "1", "1", "1"]}}}}, {"name": "StatefulPartitionedCall/sequential_1/mobilenetv2_1.00_224_1/block_5_expand_BN_1/Cast", "op": "Cast", "input": ["StatefulPartitionedCall/sequential_1/mobilenetv2_1.00_224_1/block_5_expand_1/convolution"], "attr": {"SrcT": {"type": "DT_HALF"}, "Truncate": {"b": false}, "DstT": {"type": "DT_FLOAT"}}}, {"name": "StatefulPartitionedCall/sequential_1/mobilenetv2_1.00_224_1/block_5_expand_BN_1/batchnorm/mul_1", "op": "Mul", "input": ["StatefulPartitionedCall/sequential_1/mobilenetv2_1.00_224_1/block_5_expand_BN_1/Cast", "StatefulPartitionedCall/sequential_1/mobilenetv2_1.00_224_1/block_5_expand_BN_1/batchnorm/mul"], "attr": {"T": {"type": "DT_FLOAT"}}}, {"name": "StatefulPartitionedCall/sequential_1/mobilenetv2_1.00_224_1/block_5_expand_BN_1/batchnorm/add_1", "op": "AddV2", "input": ["StatefulPartitionedCall/sequential_1/mobilenetv2_1.00_224_1/block_5_expand_BN_1/batchnorm/mul_1", "StatefulPartitionedCall/sequential_1/mobilenetv2_1.00_224_1/block_5_expand_BN_1/batchnorm/sub"], "attr": {"T": {"type": "DT_FLOAT"}}}, {"name": "StatefulPartitionedCall/sequential_1/mobilenetv2_1.00_224_1/block_5_expand_BN_1/Cast_5", "op": "Cast", "input": ["StatefulPartitionedCall/sequential_1/mobilenetv2_1.00_224_1/block_5_expand_BN_1/batchnorm/add_1"], "attr": {"DstT": {"type": "DT_HALF"}, "SrcT": {"type": "DT_FLOAT"}, "Truncate": {"b": false}}}, {"name": "StatefulPartitionedCall/sequential_1/mobilenetv2_1.00_224_1/block_5_expand_relu_1/Relu6", "op": "Relu6", "input": ["StatefulPartitionedCall/sequential_1/mobilenetv2_1.00_224_1/block_5_expand_BN_1/Cast_5"], "attr": {"T": {"type": "DT_HALF"}}}, {"name": "StatefulPartitionedCall/sequential_1/mobilenetv2_1.00_224_1/block_5_depthwise_1/depthwise", "op": "DepthwiseConv2dNative", "input": ["StatefulPartitionedCall/sequential_1/mobilenetv2_1.00_224_1/block_5_expand_relu_1/Relu6", "StatefulPartitionedCall/sequential_1/mobilenetv2_1.00_224_1/block_5_depthwise_1/depthwise/Cast"], "attr": {"data_format": {"s": "TkhXQw=="}, "dilations": {"list": {"i": ["1", "1", "1", "1"]}}, "padding": {"s": "U0FNRQ=="}, "strides": {"list": {"i": ["1", "1", "1", "1"]}}, "explicit_paddings": {"list": {}}, "T": {"type": "DT_HALF"}}}, {"name": "StatefulPartitionedCall/sequential_1/mobilenetv2_1.00_224_1/block_5_depthwise_BN_1/Cast", "op": "Cast", "input": ["StatefulPartitionedCall/sequential_1/mobilenetv2_1.00_224_1/block_5_depthwise_1/depthwise"], "attr": {"DstT": {"type": "DT_FLOAT"}, "SrcT": {"type": "DT_HALF"}, "Truncate": {"b": false}}}, {"name": "StatefulPartitionedCall/sequential_1/mobilenetv2_1.00_224_1/block_5_depthwise_BN_1/batchnorm/mul_1", "op": "Mul", "input": ["StatefulPartitionedCall/sequential_1/mobilenetv2_1.00_224_1/block_5_depthwise_BN_1/Cast", "StatefulPartitionedCall/sequential_1/mobilenetv2_1.00_224_1/block_5_depthwise_BN_1/batchnorm/mul"], "attr": {"T": {"type": "DT_FLOAT"}}}, {"name": "StatefulPartitionedCall/sequential_1/mobilenetv2_1.00_224_1/block_5_depthwise_BN_1/batchnorm/add_1", "op": "AddV2", "input": ["StatefulPartitionedCall/sequential_1/mobilenetv2_1.00_224_1/block_5_depthwise_BN_1/batchnorm/mul_1", "StatefulPartitionedCall/sequential_1/mobilenetv2_1.00_224_1/block_5_depthwise_BN_1/batchnorm/sub"], "attr": {"T": {"type": "DT_FLOAT"}}}, {"name": "StatefulPartitionedCall/sequential_1/mobilenetv2_1.00_224_1/block_5_depthwise_BN_1/Cast_5", "op": "Cast", "input": ["StatefulPartitionedCall/sequential_1/mobilenetv2_1.00_224_1/block_5_depthwise_BN_1/batchnorm/add_1"], "attr": {"Truncate": {"b": false}, "SrcT": {"type": "DT_FLOAT"}, "DstT": {"type": "DT_HALF"}}}, {"name": "StatefulPartitionedCall/sequential_1/mobilenetv2_1.00_224_1/block_5_depthwise_relu_1/Relu6", "op": "Relu6", "input": ["StatefulPartitionedCall/sequential_1/mobilenetv2_1.00_224_1/block_5_depthwise_BN_1/Cast_5"], "attr": {"T": {"type": "DT_HALF"}}}, {"name": "StatefulPartitionedCall/sequential_1/mobilenetv2_1.00_224_1/block_5_project_1/convolution", "op": "Conv2D", "input": ["StatefulPartitionedCall/sequential_1/mobilenetv2_1.00_224_1/block_5_depthwise_relu_1/Relu6", "StatefulPartitionedCall/sequential_1/mobilenetv2_1.00_224_1/block_5_project_1/convolution/Cast"], "device": "/device:CPU:0", "attr": {"explicit_paddings": {"list": {}}, "data_format": {"s": "TkhXQw=="}, "use_cudnn_on_gpu": {"b": true}, "strides": {"list": {"i": ["1", "1", "1", "1"]}}, "padding": {"s": "U0FNRQ=="}, "dilations": {"list": {"i": ["1", "1", "1", "1"]}}, "T": {"type": "DT_HALF"}}}, {"name": "StatefulPartitionedCall/sequential_1/mobilenetv2_1.00_224_1/block_5_project_BN_1/Cast", "op": "Cast", "input": ["StatefulPartitionedCall/sequential_1/mobilenetv2_1.00_224_1/block_5_project_1/convolution"], "attr": {"Truncate": {"b": false}, "DstT": {"type": "DT_FLOAT"}, "SrcT": {"type": "DT_HALF"}}}, {"name": "StatefulPartitionedCall/sequential_1/mobilenetv2_1.00_224_1/block_5_project_BN_1/batchnorm/mul_1", "op": "Mul", "input": ["StatefulPartitionedCall/sequential_1/mobilenetv2_1.00_224_1/block_5_project_BN_1/Cast", "StatefulPartitionedCall/sequential_1/mobilenetv2_1.00_224_1/block_5_project_BN_1/batchnorm/mul"], "attr": {"T": {"type": "DT_FLOAT"}}}, {"name": "StatefulPartitionedCall/sequential_1/mobilenetv2_1.00_224_1/block_5_project_BN_1/batchnorm/add_1", "op": "AddV2", "input": ["StatefulPartitionedCall/sequential_1/mobilenetv2_1.00_224_1/block_5_project_BN_1/batchnorm/mul_1", "StatefulPartitionedCall/sequential_1/mobilenetv2_1.00_224_1/block_5_project_BN_1/batchnorm/sub"], "attr": {"T": {"type": "DT_FLOAT"}}}, {"name": "StatefulPartitionedCall/sequential_1/mobilenetv2_1.00_224_1/block_5_project_BN_1/Cast_5", "op": "Cast", "input": ["StatefulPartitionedCall/sequential_1/mobilenetv2_1.00_224_1/block_5_project_BN_1/batchnorm/add_1"], "attr": {"Truncate": {"b": false}, "SrcT": {"type": "DT_FLOAT"}, "DstT": {"type": "DT_HALF"}}}, {"name": "StatefulPartitionedCall/sequential_1/mobilenetv2_1.00_224_1/block_5_add_1/Add", "op": "AddV2", "input": ["StatefulPartitionedCall/sequential_1/mobilenetv2_1.00_224_1/block_4_add_1/Add", "StatefulPartitionedCall/sequential_1/mobilenetv2_1.00_224_1/block_5_project_BN_1/Cast_5"], "attr": {"T": {"type": "DT_HALF"}}}, {"name": "StatefulPartitionedCall/sequential_1/mobilenetv2_1.00_224_1/block_6_expand_1/convolution", "op": "Conv2D", "input": ["StatefulPartitionedCall/sequential_1/mobilenetv2_1.00_224_1/block_5_add_1/Add", "StatefulPartitionedCall/sequential_1/mobilenetv2_1.00_224_1/block_6_expand_1/convolution/Cast"], "device": "/device:CPU:0", "attr": {"strides": {"list": {"i": ["1", "1", "1", "1"]}}, "use_cudnn_on_gpu": {"b": true}, "explicit_paddings": {"list": {}}, "T": {"type": "DT_HALF"}, "padding": {"s": "U0FNRQ=="}, "dilations": {"list": {"i": ["1", "1", "1", "1"]}}, "data_format": {"s": "TkhXQw=="}}}, {"name": "StatefulPartitionedCall/sequential_1/mobilenetv2_1.00_224_1/block_6_expand_BN_1/Cast", "op": "Cast", "input": ["StatefulPartitionedCall/sequential_1/mobilenetv2_1.00_224_1/block_6_expand_1/convolution"], "attr": {"DstT": {"type": "DT_FLOAT"}, "Truncate": {"b": false}, "SrcT": {"type": "DT_HALF"}}}, {"name": "StatefulPartitionedCall/sequential_1/mobilenetv2_1.00_224_1/block_6_expand_BN_1/batchnorm/mul_1", "op": "Mul", "input": ["StatefulPartitionedCall/sequential_1/mobilenetv2_1.00_224_1/block_6_expand_BN_1/Cast", "StatefulPartitionedCall/sequential_1/mobilenetv2_1.00_224_1/block_6_expand_BN_1/batchnorm/mul"], "attr": {"T": {"type": "DT_FLOAT"}}}, {"name": "StatefulPartitionedCall/sequential_1/mobilenetv2_1.00_224_1/block_6_expand_BN_1/batchnorm/add_1", "op": "AddV2", "input": ["StatefulPartitionedCall/sequential_1/mobilenetv2_1.00_224_1/block_6_expand_BN_1/batchnorm/mul_1", "StatefulPartitionedCall/sequential_1/mobilenetv2_1.00_224_1/block_6_expand_BN_1/batchnorm/sub"], "attr": {"T": {"type": "DT_FLOAT"}}}, {"name": "StatefulPartitionedCall/sequential_1/mobilenetv2_1.00_224_1/block_6_expand_BN_1/Cast_5", "op": "Cast", "input": ["StatefulPartitionedCall/sequential_1/mobilenetv2_1.00_224_1/block_6_expand_BN_1/batchnorm/add_1"], "attr": {"Truncate": {"b": false}, "SrcT": {"type": "DT_FLOAT"}, "DstT": {"type": "DT_HALF"}}}, {"name": "StatefulPartitionedCall/sequential_1/mobilenetv2_1.00_224_1/block_6_expand_relu_1/Relu6", "op": "Relu6", "input": ["StatefulPartitionedCall/sequential_1/mobilenetv2_1.00_224_1/block_6_expand_BN_1/Cast_5"], "attr": {"T": {"type": "DT_HALF"}}}, {"name": "StatefulPartitionedCall/sequential_1/mobilenetv2_1.00_224_1/block_6_pad_1/Pad", "op": "Pad", "input": ["StatefulPartitionedCall/sequential_1/mobilenetv2_1.00_224_1/block_6_expand_relu_1/Relu6", "StatefulPartitionedCall/sequential_1/mobilenetv2_1.00_224_1/block_6_pad_1/Const"], "attr": {"T": {"type": "DT_HALF"}, "Tpaddings": {"type": "DT_INT32"}}}, {"name": "StatefulPartitionedCall/sequential_1/mobilenetv2_1.00_224_1/block_6_depthwise_1/depthwise", "op": "DepthwiseConv2dNative", "input": ["StatefulPartitionedCall/sequential_1/mobilenetv2_1.00_224_1/block_6_pad_1/Pad", "StatefulPartitionedCall/sequential_1/mobilenetv2_1.00_224_1/block_6_depthwise_1/depthwise/Cast"], "attr": {"T": {"type": "DT_HALF"}, "padding": {"s": "VkFMSUQ="}, "dilations": {"list": {"i": ["1", "1", "1", "1"]}}, "explicit_paddings": {"list": {}}, "strides": {"list": {"i": ["1", "2", "2", "1"]}}, "data_format": {"s": "TkhXQw=="}}}, {"name": "StatefulPartitionedCall/sequential_1/mobilenetv2_1.00_224_1/block_6_depthwise_BN_1/Cast", "op": "Cast", "input": ["StatefulPartitionedCall/sequential_1/mobilenetv2_1.00_224_1/block_6_depthwise_1/depthwise"], "attr": {"Truncate": {"b": false}, "SrcT": {"type": "DT_HALF"}, "DstT": {"type": "DT_FLOAT"}}}, {"name": "StatefulPartitionedCall/sequential_1/mobilenetv2_1.00_224_1/block_6_depthwise_BN_1/batchnorm/mul_1", "op": "Mul", "input": ["StatefulPartitionedCall/sequential_1/mobilenetv2_1.00_224_1/block_6_depthwise_BN_1/Cast", "StatefulPartitionedCall/sequential_1/mobilenetv2_1.00_224_1/block_6_depthwise_BN_1/batchnorm/mul"], "attr": {"T": {"type": "DT_FLOAT"}}}, {"name": "StatefulPartitionedCall/sequential_1/mobilenetv2_1.00_224_1/block_6_depthwise_BN_1/batchnorm/add_1", "op": "AddV2", "input": ["StatefulPartitionedCall/sequential_1/mobilenetv2_1.00_224_1/block_6_depthwise_BN_1/batchnorm/mul_1", "StatefulPartitionedCall/sequential_1/mobilenetv2_1.00_224_1/block_6_depthwise_BN_1/batchnorm/sub"], "attr": {"T": {"type": "DT_FLOAT"}}}, {"name": "StatefulPartitionedCall/sequential_1/mobilenetv2_1.00_224_1/block_6_depthwise_BN_1/Cast_5", "op": "Cast", "input": ["StatefulPartitionedCall/sequential_1/mobilenetv2_1.00_224_1/block_6_depthwise_BN_1/batchnorm/add_1"], "attr": {"DstT": {"type": "DT_HALF"}, "SrcT": {"type": "DT_FLOAT"}, "Truncate": {"b": false}}}, {"name": "StatefulPartitionedCall/sequential_1/mobilenetv2_1.00_224_1/block_6_depthwise_relu_1/Relu6", "op": "Relu6", "input": ["StatefulPartitionedCall/sequential_1/mobilenetv2_1.00_224_1/block_6_depthwise_BN_1/Cast_5"], "attr": {"T": {"type": "DT_HALF"}}}, {"name": "StatefulPartitionedCall/sequential_1/mobilenetv2_1.00_224_1/block_6_project_1/convolution", "op": "Conv2D", "input": ["StatefulPartitionedCall/sequential_1/mobilenetv2_1.00_224_1/block_6_depthwise_relu_1/Relu6", "StatefulPartitionedCall/sequential_1/mobilenetv2_1.00_224_1/block_6_project_1/convolution/Cast"], "device": "/device:CPU:0", "attr": {"T": {"type": "DT_HALF"}, "use_cudnn_on_gpu": {"b": true}, "strides": {"list": {"i": ["1", "1", "1", "1"]}}, "data_format": {"s": "TkhXQw=="}, "explicit_paddings": {"list": {}}, "padding": {"s": "U0FNRQ=="}, "dilations": {"list": {"i": ["1", "1", "1", "1"]}}}}, {"name": "StatefulPartitionedCall/sequential_1/mobilenetv2_1.00_224_1/block_6_project_BN_1/Cast", "op": "Cast", "input": ["StatefulPartitionedCall/sequential_1/mobilenetv2_1.00_224_1/block_6_project_1/convolution"], "attr": {"SrcT": {"type": "DT_HALF"}, "DstT": {"type": "DT_FLOAT"}, "Truncate": {"b": false}}}, {"name": "StatefulPartitionedCall/sequential_1/mobilenetv2_1.00_224_1/block_6_project_BN_1/batchnorm/mul_1", "op": "Mul", "input": ["StatefulPartitionedCall/sequential_1/mobilenetv2_1.00_224_1/block_6_project_BN_1/Cast", "StatefulPartitionedCall/sequential_1/mobilenetv2_1.00_224_1/block_6_project_BN_1/batchnorm/mul"], "attr": {"T": {"type": "DT_FLOAT"}}}, {"name": "StatefulPartitionedCall/sequential_1/mobilenetv2_1.00_224_1/block_6_project_BN_1/batchnorm/add_1", "op": "AddV2", "input": ["StatefulPartitionedCall/sequential_1/mobilenetv2_1.00_224_1/block_6_project_BN_1/batchnorm/mul_1", "StatefulPartitionedCall/sequential_1/mobilenetv2_1.00_224_1/block_6_project_BN_1/batchnorm/sub"], "attr": {"T": {"type": "DT_FLOAT"}}}, {"name": "StatefulPartitionedCall/sequential_1/mobilenetv2_1.00_224_1/block_6_project_BN_1/Cast_5", "op": "Cast", "input": ["StatefulPartitionedCall/sequential_1/mobilenetv2_1.00_224_1/block_6_project_BN_1/batchnorm/add_1"], "attr": {"DstT": {"type": "DT_HALF"}, "SrcT": {"type": "DT_FLOAT"}, "Truncate": {"b": false}}}, {"name": "StatefulPartitionedCall/sequential_1/mobilenetv2_1.00_224_1/block_7_expand_1/convolution", "op": "Conv2D", "input": ["StatefulPartitionedCall/sequential_1/mobilenetv2_1.00_224_1/block_6_project_BN_1/Cast_5", "StatefulPartitionedCall/sequential_1/mobilenetv2_1.00_224_1/block_7_expand_1/convolution/Cast"], "device": "/device:CPU:0", "attr": {"use_cudnn_on_gpu": {"b": true}, "T": {"type": "DT_HALF"}, "explicit_paddings": {"list": {}}, "strides": {"list": {"i": ["1", "1", "1", "1"]}}, "dilations": {"list": {"i": ["1", "1", "1", "1"]}}, "padding": {"s": "U0FNRQ=="}, "data_format": {"s": "TkhXQw=="}}}, {"name": "StatefulPartitionedCall/sequential_1/mobilenetv2_1.00_224_1/block_7_expand_BN_1/Cast", "op": "Cast", "input": ["StatefulPartitionedCall/sequential_1/mobilenetv2_1.00_224_1/block_7_expand_1/convolution"], "attr": {"SrcT": {"type": "DT_HALF"}, "DstT": {"type": "DT_FLOAT"}, "Truncate": {"b": false}}}, {"name": "StatefulPartitionedCall/sequential_1/mobilenetv2_1.00_224_1/block_7_expand_BN_1/batchnorm/mul_1", "op": "Mul", "input": ["StatefulPartitionedCall/sequential_1/mobilenetv2_1.00_224_1/block_7_expand_BN_1/Cast", "StatefulPartitionedCall/sequential_1/mobilenetv2_1.00_224_1/block_7_expand_BN_1/batchnorm/mul"], "attr": {"T": {"type": "DT_FLOAT"}}}, {"name": "StatefulPartitionedCall/sequential_1/mobilenetv2_1.00_224_1/block_7_expand_BN_1/batchnorm/add_1", "op": "AddV2", "input": ["StatefulPartitionedCall/sequential_1/mobilenetv2_1.00_224_1/block_7_expand_BN_1/batchnorm/mul_1", "StatefulPartitionedCall/sequential_1/mobilenetv2_1.00_224_1/block_7_expand_BN_1/batchnorm/sub"], "attr": {"T": {"type": "DT_FLOAT"}}}, {"name": "StatefulPartitionedCall/sequential_1/mobilenetv2_1.00_224_1/block_7_expand_BN_1/Cast_5", "op": "Cast", "input": ["StatefulPartitionedCall/sequential_1/mobilenetv2_1.00_224_1/block_7_expand_BN_1/batchnorm/add_1"], "attr": {"Truncate": {"b": false}, "SrcT": {"type": "DT_FLOAT"}, "DstT": {"type": "DT_HALF"}}}, {"name": "StatefulPartitionedCall/sequential_1/mobilenetv2_1.00_224_1/block_7_expand_relu_1/Relu6", "op": "Relu6", "input": ["StatefulPartitionedCall/sequential_1/mobilenetv2_1.00_224_1/block_7_expand_BN_1/Cast_5"], "attr": {"T": {"type": "DT_HALF"}}}, {"name": "StatefulPartitionedCall/sequential_1/mobilenetv2_1.00_224_1/block_7_depthwise_1/depthwise", "op": "DepthwiseConv2dNative", "input": ["StatefulPartitionedCall/sequential_1/mobilenetv2_1.00_224_1/block_7_expand_relu_1/Relu6", "StatefulPartitionedCall/sequential_1/mobilenetv2_1.00_224_1/block_7_depthwise_1/depthwise/Cast"], "attr": {"explicit_paddings": {"list": {}}, "padding": {"s": "U0FNRQ=="}, "data_format": {"s": "TkhXQw=="}, "strides": {"list": {"i": ["1", "1", "1", "1"]}}, "T": {"type": "DT_HALF"}, "dilations": {"list": {"i": ["1", "1", "1", "1"]}}}}, {"name": "StatefulPartitionedCall/sequential_1/mobilenetv2_1.00_224_1/block_7_depthwise_BN_1/Cast", "op": "Cast", "input": ["StatefulPartitionedCall/sequential_1/mobilenetv2_1.00_224_1/block_7_depthwise_1/depthwise"], "attr": {"SrcT": {"type": "DT_HALF"}, "DstT": {"type": "DT_FLOAT"}, "Truncate": {"b": false}}}, {"name": "StatefulPartitionedCall/sequential_1/mobilenetv2_1.00_224_1/block_7_depthwise_BN_1/batchnorm/mul_1", "op": "Mul", "input": ["StatefulPartitionedCall/sequential_1/mobilenetv2_1.00_224_1/block_7_depthwise_BN_1/Cast", "StatefulPartitionedCall/sequential_1/mobilenetv2_1.00_224_1/block_7_depthwise_BN_1/batchnorm/mul"], "attr": {"T": {"type": "DT_FLOAT"}}}, {"name": "StatefulPartitionedCall/sequential_1/mobilenetv2_1.00_224_1/block_7_depthwise_BN_1/batchnorm/add_1", "op": "AddV2", "input": ["StatefulPartitionedCall/sequential_1/mobilenetv2_1.00_224_1/block_7_depthwise_BN_1/batchnorm/mul_1", "StatefulPartitionedCall/sequential_1/mobilenetv2_1.00_224_1/block_7_depthwise_BN_1/batchnorm/sub"], "attr": {"T": {"type": "DT_FLOAT"}}}, {"name": "StatefulPartitionedCall/sequential_1/mobilenetv2_1.00_224_1/block_7_depthwise_BN_1/Cast_5", "op": "Cast", "input": ["StatefulPartitionedCall/sequential_1/mobilenetv2_1.00_224_1/block_7_depthwise_BN_1/batchnorm/add_1"], "attr": {"Truncate": {"b": false}, "DstT": {"type": "DT_HALF"}, "SrcT": {"type": "DT_FLOAT"}}}, {"name": "StatefulPartitionedCall/sequential_1/mobilenetv2_1.00_224_1/block_7_depthwise_relu_1/Relu6", "op": "Relu6", "input": ["StatefulPartitionedCall/sequential_1/mobilenetv2_1.00_224_1/block_7_depthwise_BN_1/Cast_5"], "attr": {"T": {"type": "DT_HALF"}}}, {"name": "StatefulPartitionedCall/sequential_1/mobilenetv2_1.00_224_1/block_7_project_1/convolution", "op": "Conv2D", "input": ["StatefulPartitionedCall/sequential_1/mobilenetv2_1.00_224_1/block_7_depthwise_relu_1/Relu6", "StatefulPartitionedCall/sequential_1/mobilenetv2_1.00_224_1/block_7_project_1/convolution/Cast"], "device": "/device:CPU:0", "attr": {"strides": {"list": {"i": ["1", "1", "1", "1"]}}, "explicit_paddings": {"list": {}}, "T": {"type": "DT_HALF"}, "use_cudnn_on_gpu": {"b": true}, "dilations": {"list": {"i": ["1", "1", "1", "1"]}}, "data_format": {"s": "TkhXQw=="}, "padding": {"s": "U0FNRQ=="}}}, {"name": "StatefulPartitionedCall/sequential_1/mobilenetv2_1.00_224_1/block_7_project_BN_1/Cast", "op": "Cast", "input": ["StatefulPartitionedCall/sequential_1/mobilenetv2_1.00_224_1/block_7_project_1/convolution"], "attr": {"SrcT": {"type": "DT_HALF"}, "Truncate": {"b": false}, "DstT": {"type": "DT_FLOAT"}}}, {"name": "StatefulPartitionedCall/sequential_1/mobilenetv2_1.00_224_1/block_7_project_BN_1/batchnorm/mul_1", "op": "Mul", "input": ["StatefulPartitionedCall/sequential_1/mobilenetv2_1.00_224_1/block_7_project_BN_1/Cast", "StatefulPartitionedCall/sequential_1/mobilenetv2_1.00_224_1/block_7_project_BN_1/batchnorm/mul"], "attr": {"T": {"type": "DT_FLOAT"}}}, {"name": "StatefulPartitionedCall/sequential_1/mobilenetv2_1.00_224_1/block_7_project_BN_1/batchnorm/add_1", "op": "AddV2", "input": ["StatefulPartitionedCall/sequential_1/mobilenetv2_1.00_224_1/block_7_project_BN_1/batchnorm/mul_1", "StatefulPartitionedCall/sequential_1/mobilenetv2_1.00_224_1/block_7_project_BN_1/batchnorm/sub"], "attr": {"T": {"type": "DT_FLOAT"}}}, {"name": "StatefulPartitionedCall/sequential_1/mobilenetv2_1.00_224_1/block_7_project_BN_1/Cast_5", "op": "Cast", "input": ["StatefulPartitionedCall/sequential_1/mobilenetv2_1.00_224_1/block_7_project_BN_1/batchnorm/add_1"], "attr": {"Truncate": {"b": false}, "SrcT": {"type": "DT_FLOAT"}, "DstT": {"type": "DT_HALF"}}}, {"name": "StatefulPartitionedCall/sequential_1/mobilenetv2_1.00_224_1/block_7_add_1/Add", "op": "AddV2", "input": ["StatefulPartitionedCall/sequential_1/mobilenetv2_1.00_224_1/block_6_project_BN_1/Cast_5", "StatefulPartitionedCall/sequential_1/mobilenetv2_1.00_224_1/block_7_project_BN_1/Cast_5"], "attr": {"T": {"type": "DT_HALF"}}}, {"name": "StatefulPartitionedCall/sequential_1/mobilenetv2_1.00_224_1/block_8_expand_1/convolution", "op": "Conv2D", "input": ["StatefulPartitionedCall/sequential_1/mobilenetv2_1.00_224_1/block_7_add_1/Add", "StatefulPartitionedCall/sequential_1/mobilenetv2_1.00_224_1/block_8_expand_1/convolution/Cast"], "device": "/device:CPU:0", "attr": {"explicit_paddings": {"list": {}}, "T": {"type": "DT_HALF"}, "dilations": {"list": {"i": ["1", "1", "1", "1"]}}, "strides": {"list": {"i": ["1", "1", "1", "1"]}}, "use_cudnn_on_gpu": {"b": true}, "data_format": {"s": "TkhXQw=="}, "padding": {"s": "U0FNRQ=="}}}, {"name": "StatefulPartitionedCall/sequential_1/mobilenetv2_1.00_224_1/block_8_expand_BN_1/Cast", "op": "Cast", "input": ["StatefulPartitionedCall/sequential_1/mobilenetv2_1.00_224_1/block_8_expand_1/convolution"], "attr": {"Truncate": {"b": false}, "SrcT": {"type": "DT_HALF"}, "DstT": {"type": "DT_FLOAT"}}}, {"name": "StatefulPartitionedCall/sequential_1/mobilenetv2_1.00_224_1/block_8_expand_BN_1/batchnorm/mul_1", "op": "Mul", "input": ["StatefulPartitionedCall/sequential_1/mobilenetv2_1.00_224_1/block_8_expand_BN_1/Cast", "StatefulPartitionedCall/sequential_1/mobilenetv2_1.00_224_1/block_8_expand_BN_1/batchnorm/mul"], "attr": {"T": {"type": "DT_FLOAT"}}}, {"name": "StatefulPartitionedCall/sequential_1/mobilenetv2_1.00_224_1/block_8_expand_BN_1/batchnorm/add_1", "op": "AddV2", "input": ["StatefulPartitionedCall/sequential_1/mobilenetv2_1.00_224_1/block_8_expand_BN_1/batchnorm/mul_1", "StatefulPartitionedCall/sequential_1/mobilenetv2_1.00_224_1/block_8_expand_BN_1/batchnorm/sub"], "attr": {"T": {"type": "DT_FLOAT"}}}, {"name": "StatefulPartitionedCall/sequential_1/mobilenetv2_1.00_224_1/block_8_expand_BN_1/Cast_5", "op": "Cast", "input": ["StatefulPartitionedCall/sequential_1/mobilenetv2_1.00_224_1/block_8_expand_BN_1/batchnorm/add_1"], "attr": {"DstT": {"type": "DT_HALF"}, "Truncate": {"b": false}, "SrcT": {"type": "DT_FLOAT"}}}, {"name": "StatefulPartitionedCall/sequential_1/mobilenetv2_1.00_224_1/block_8_expand_relu_1/Relu6", "op": "Relu6", "input": ["StatefulPartitionedCall/sequential_1/mobilenetv2_1.00_224_1/block_8_expand_BN_1/Cast_5"], "attr": {"T": {"type": "DT_HALF"}}}, {"name": "StatefulPartitionedCall/sequential_1/mobilenetv2_1.00_224_1/block_8_depthwise_1/depthwise", "op": "DepthwiseConv2dNative", "input": ["StatefulPartitionedCall/sequential_1/mobilenetv2_1.00_224_1/block_8_expand_relu_1/Relu6", "StatefulPartitionedCall/sequential_1/mobilenetv2_1.00_224_1/block_8_depthwise_1/depthwise/Cast"], "attr": {"dilations": {"list": {"i": ["1", "1", "1", "1"]}}, "padding": {"s": "U0FNRQ=="}, "T": {"type": "DT_HALF"}, "strides": {"list": {"i": ["1", "1", "1", "1"]}}, "data_format": {"s": "TkhXQw=="}, "explicit_paddings": {"list": {}}}}, {"name": "StatefulPartitionedCall/sequential_1/mobilenetv2_1.00_224_1/block_8_depthwise_BN_1/Cast", "op": "Cast", "input": ["StatefulPartitionedCall/sequential_1/mobilenetv2_1.00_224_1/block_8_depthwise_1/depthwise"], "attr": {"Truncate": {"b": false}, "SrcT": {"type": "DT_HALF"}, "DstT": {"type": "DT_FLOAT"}}}, {"name": "StatefulPartitionedCall/sequential_1/mobilenetv2_1.00_224_1/block_8_depthwise_BN_1/batchnorm/mul_1", "op": "Mul", "input": ["StatefulPartitionedCall/sequential_1/mobilenetv2_1.00_224_1/block_8_depthwise_BN_1/Cast", "StatefulPartitionedCall/sequential_1/mobilenetv2_1.00_224_1/block_8_depthwise_BN_1/batchnorm/mul"], "attr": {"T": {"type": "DT_FLOAT"}}}, {"name": "StatefulPartitionedCall/sequential_1/mobilenetv2_1.00_224_1/block_8_depthwise_BN_1/batchnorm/add_1", "op": "AddV2", "input": ["StatefulPartitionedCall/sequential_1/mobilenetv2_1.00_224_1/block_8_depthwise_BN_1/batchnorm/mul_1", "StatefulPartitionedCall/sequential_1/mobilenetv2_1.00_224_1/block_8_depthwise_BN_1/batchnorm/sub"], "attr": {"T": {"type": "DT_FLOAT"}}}, {"name": "StatefulPartitionedCall/sequential_1/mobilenetv2_1.00_224_1/block_8_depthwise_BN_1/Cast_5", "op": "Cast", "input": ["StatefulPartitionedCall/sequential_1/mobilenetv2_1.00_224_1/block_8_depthwise_BN_1/batchnorm/add_1"], "attr": {"Truncate": {"b": false}, "SrcT": {"type": "DT_FLOAT"}, "DstT": {"type": "DT_HALF"}}}, {"name": "StatefulPartitionedCall/sequential_1/mobilenetv2_1.00_224_1/block_8_depthwise_relu_1/Relu6", "op": "Relu6", "input": ["StatefulPartitionedCall/sequential_1/mobilenetv2_1.00_224_1/block_8_depthwise_BN_1/Cast_5"], "attr": {"T": {"type": "DT_HALF"}}}, {"name": "StatefulPartitionedCall/sequential_1/mobilenetv2_1.00_224_1/block_8_project_1/convolution", "op": "Conv2D", "input": ["StatefulPartitionedCall/sequential_1/mobilenetv2_1.00_224_1/block_8_depthwise_relu_1/Relu6", "StatefulPartitionedCall/sequential_1/mobilenetv2_1.00_224_1/block_8_project_1/convolution/Cast"], "device": "/device:CPU:0", "attr": {"padding": {"s": "U0FNRQ=="}, "data_format": {"s": "TkhXQw=="}, "strides": {"list": {"i": ["1", "1", "1", "1"]}}, "explicit_paddings": {"list": {}}, "dilations": {"list": {"i": ["1", "1", "1", "1"]}}, "T": {"type": "DT_HALF"}, "use_cudnn_on_gpu": {"b": true}}}, {"name": "StatefulPartitionedCall/sequential_1/mobilenetv2_1.00_224_1/block_8_project_BN_1/Cast", "op": "Cast", "input": ["StatefulPartitionedCall/sequential_1/mobilenetv2_1.00_224_1/block_8_project_1/convolution"], "attr": {"DstT": {"type": "DT_FLOAT"}, "Truncate": {"b": false}, "SrcT": {"type": "DT_HALF"}}}, {"name": "StatefulPartitionedCall/sequential_1/mobilenetv2_1.00_224_1/block_8_project_BN_1/batchnorm/mul_1", "op": "Mul", "input": ["StatefulPartitionedCall/sequential_1/mobilenetv2_1.00_224_1/block_8_project_BN_1/Cast", "StatefulPartitionedCall/sequential_1/mobilenetv2_1.00_224_1/block_8_project_BN_1/batchnorm/mul"], "attr": {"T": {"type": "DT_FLOAT"}}}, {"name": "StatefulPartitionedCall/sequential_1/mobilenetv2_1.00_224_1/block_8_project_BN_1/batchnorm/add_1", "op": "AddV2", "input": ["StatefulPartitionedCall/sequential_1/mobilenetv2_1.00_224_1/block_8_project_BN_1/batchnorm/mul_1", "StatefulPartitionedCall/sequential_1/mobilenetv2_1.00_224_1/block_8_project_BN_1/batchnorm/sub"], "attr": {"T": {"type": "DT_FLOAT"}}}, {"name": "StatefulPartitionedCall/sequential_1/mobilenetv2_1.00_224_1/block_8_project_BN_1/Cast_5", "op": "Cast", "input": ["StatefulPartitionedCall/sequential_1/mobilenetv2_1.00_224_1/block_8_project_BN_1/batchnorm/add_1"], "attr": {"SrcT": {"type": "DT_FLOAT"}, "DstT": {"type": "DT_HALF"}, "Truncate": {"b": false}}}, {"name": "StatefulPartitionedCall/sequential_1/mobilenetv2_1.00_224_1/block_8_add_1/Add", "op": "AddV2", "input": ["StatefulPartitionedCall/sequential_1/mobilenetv2_1.00_224_1/block_7_add_1/Add", "StatefulPartitionedCall/sequential_1/mobilenetv2_1.00_224_1/block_8_project_BN_1/Cast_5"], "attr": {"T": {"type": "DT_HALF"}}}, {"name": "StatefulPartitionedCall/sequential_1/mobilenetv2_1.00_224_1/block_9_expand_1/convolution", "op": "Conv2D", "input": ["StatefulPartitionedCall/sequential_1/mobilenetv2_1.00_224_1/block_8_add_1/Add", "StatefulPartitionedCall/sequential_1/mobilenetv2_1.00_224_1/block_9_expand_1/convolution/Cast"], "device": "/device:CPU:0", "attr": {"explicit_paddings": {"list": {}}, "strides": {"list": {"i": ["1", "1", "1", "1"]}}, "data_format": {"s": "TkhXQw=="}, "dilations": {"list": {"i": ["1", "1", "1", "1"]}}, "use_cudnn_on_gpu": {"b": true}, "T": {"type": "DT_HALF"}, "padding": {"s": "U0FNRQ=="}}}, {"name": "StatefulPartitionedCall/sequential_1/mobilenetv2_1.00_224_1/block_9_expand_BN_1/Cast", "op": "Cast", "input": ["StatefulPartitionedCall/sequential_1/mobilenetv2_1.00_224_1/block_9_expand_1/convolution"], "attr": {"DstT": {"type": "DT_FLOAT"}, "SrcT": {"type": "DT_HALF"}, "Truncate": {"b": false}}}, {"name": "StatefulPartitionedCall/sequential_1/mobilenetv2_1.00_224_1/block_9_expand_BN_1/batchnorm/mul_1", "op": "Mul", "input": ["StatefulPartitionedCall/sequential_1/mobilenetv2_1.00_224_1/block_9_expand_BN_1/Cast", "StatefulPartitionedCall/sequential_1/mobilenetv2_1.00_224_1/block_9_expand_BN_1/batchnorm/mul"], "attr": {"T": {"type": "DT_FLOAT"}}}, {"name": "StatefulPartitionedCall/sequential_1/mobilenetv2_1.00_224_1/block_9_expand_BN_1/batchnorm/add_1", "op": "AddV2", "input": ["StatefulPartitionedCall/sequential_1/mobilenetv2_1.00_224_1/block_9_expand_BN_1/batchnorm/mul_1", "StatefulPartitionedCall/sequential_1/mobilenetv2_1.00_224_1/block_9_expand_BN_1/batchnorm/sub"], "attr": {"T": {"type": "DT_FLOAT"}}}, {"name": "StatefulPartitionedCall/sequential_1/mobilenetv2_1.00_224_1/block_9_expand_BN_1/Cast_5", "op": "Cast", "input": ["StatefulPartitionedCall/sequential_1/mobilenetv2_1.00_224_1/block_9_expand_BN_1/batchnorm/add_1"], "attr": {"DstT": {"type": "DT_HALF"}, "SrcT": {"type": "DT_FLOAT"}, "Truncate": {"b": false}}}, {"name": "StatefulPartitionedCall/sequential_1/mobilenetv2_1.00_224_1/block_9_expand_relu_1/Relu6", "op": "Relu6", "input": ["StatefulPartitionedCall/sequential_1/mobilenetv2_1.00_224_1/block_9_expand_BN_1/Cast_5"], "attr": {"T": {"type": "DT_HALF"}}}, {"name": "StatefulPartitionedCall/sequential_1/mobilenetv2_1.00_224_1/block_9_depthwise_1/depthwise", "op": "DepthwiseConv2dNative", "input": ["StatefulPartitionedCall/sequential_1/mobilenetv2_1.00_224_1/block_9_expand_relu_1/Relu6", "StatefulPartitionedCall/sequential_1/mobilenetv2_1.00_224_1/block_9_depthwise_1/depthwise/Cast"], "attr": {"data_format": {"s": "TkhXQw=="}, "dilations": {"list": {"i": ["1", "1", "1", "1"]}}, "strides": {"list": {"i": ["1", "1", "1", "1"]}}, "T": {"type": "DT_HALF"}, "explicit_paddings": {"list": {}}, "padding": {"s": "U0FNRQ=="}}}, {"name": "StatefulPartitionedCall/sequential_1/mobilenetv2_1.00_224_1/block_9_depthwise_BN_1/Cast", "op": "Cast", "input": ["StatefulPartitionedCall/sequential_1/mobilenetv2_1.00_224_1/block_9_depthwise_1/depthwise"], "attr": {"Truncate": {"b": false}, "SrcT": {"type": "DT_HALF"}, "DstT": {"type": "DT_FLOAT"}}}, {"name": "StatefulPartitionedCall/sequential_1/mobilenetv2_1.00_224_1/block_9_depthwise_BN_1/batchnorm/mul_1", "op": "Mul", "input": ["StatefulPartitionedCall/sequential_1/mobilenetv2_1.00_224_1/block_9_depthwise_BN_1/Cast", "StatefulPartitionedCall/sequential_1/mobilenetv2_1.00_224_1/block_9_depthwise_BN_1/batchnorm/mul"], "attr": {"T": {"type": "DT_FLOAT"}}}, {"name": "StatefulPartitionedCall/sequential_1/mobilenetv2_1.00_224_1/block_9_depthwise_BN_1/batchnorm/add_1", "op": "AddV2", "input": ["StatefulPartitionedCall/sequential_1/mobilenetv2_1.00_224_1/block_9_depthwise_BN_1/batchnorm/mul_1", "StatefulPartitionedCall/sequential_1/mobilenetv2_1.00_224_1/block_9_depthwise_BN_1/batchnorm/sub"], "attr": {"T": {"type": "DT_FLOAT"}}}, {"name": "StatefulPartitionedCall/sequential_1/mobilenetv2_1.00_224_1/block_9_depthwise_BN_1/Cast_5", "op": "Cast", "input": ["StatefulPartitionedCall/sequential_1/mobilenetv2_1.00_224_1/block_9_depthwise_BN_1/batchnorm/add_1"], "attr": {"DstT": {"type": "DT_HALF"}, "Truncate": {"b": false}, "SrcT": {"type": "DT_FLOAT"}}}, {"name": "StatefulPartitionedCall/sequential_1/mobilenetv2_1.00_224_1/block_9_depthwise_relu_1/Relu6", "op": "Relu6", "input": ["StatefulPartitionedCall/sequential_1/mobilenetv2_1.00_224_1/block_9_depthwise_BN_1/Cast_5"], "attr": {"T": {"type": "DT_HALF"}}}, {"name": "StatefulPartitionedCall/sequential_1/mobilenetv2_1.00_224_1/block_9_project_1/convolution", "op": "Conv2D", "input": ["StatefulPartitionedCall/sequential_1/mobilenetv2_1.00_224_1/block_9_depthwise_relu_1/Relu6", "StatefulPartitionedCall/sequential_1/mobilenetv2_1.00_224_1/block_9_project_1/convolution/Cast"], "device": "/device:CPU:0", "attr": {"dilations": {"list": {"i": ["1", "1", "1", "1"]}}, "strides": {"list": {"i": ["1", "1", "1", "1"]}}, "explicit_paddings": {"list": {}}, "T": {"type": "DT_HALF"}, "data_format": {"s": "TkhXQw=="}, "use_cudnn_on_gpu": {"b": true}, "padding": {"s": "U0FNRQ=="}}}, {"name": "StatefulPartitionedCall/sequential_1/mobilenetv2_1.00_224_1/block_9_project_BN_1/Cast", "op": "Cast", "input": ["StatefulPartitionedCall/sequential_1/mobilenetv2_1.00_224_1/block_9_project_1/convolution"], "attr": {"SrcT": {"type": "DT_HALF"}, "Truncate": {"b": false}, "DstT": {"type": "DT_FLOAT"}}}, {"name": "StatefulPartitionedCall/sequential_1/mobilenetv2_1.00_224_1/block_9_project_BN_1/batchnorm/mul_1", "op": "Mul", "input": ["StatefulPartitionedCall/sequential_1/mobilenetv2_1.00_224_1/block_9_project_BN_1/Cast", "StatefulPartitionedCall/sequential_1/mobilenetv2_1.00_224_1/block_9_project_BN_1/batchnorm/mul"], "attr": {"T": {"type": "DT_FLOAT"}}}, {"name": "StatefulPartitionedCall/sequential_1/mobilenetv2_1.00_224_1/block_9_project_BN_1/batchnorm/add_1", "op": "AddV2", "input": ["StatefulPartitionedCall/sequential_1/mobilenetv2_1.00_224_1/block_9_project_BN_1/batchnorm/mul_1", "StatefulPartitionedCall/sequential_1/mobilenetv2_1.00_224_1/block_9_project_BN_1/batchnorm/sub"], "attr": {"T": {"type": "DT_FLOAT"}}}, {"name": "StatefulPartitionedCall/sequential_1/mobilenetv2_1.00_224_1/block_9_project_BN_1/Cast_5", "op": "Cast", "input": ["StatefulPartitionedCall/sequential_1/mobilenetv2_1.00_224_1/block_9_project_BN_1/batchnorm/add_1"], "attr": {"SrcT": {"type": "DT_FLOAT"}, "DstT": {"type": "DT_HALF"}, "Truncate": {"b": false}}}, {"name": "StatefulPartitionedCall/sequential_1/mobilenetv2_1.00_224_1/block_9_add_1/Add", "op": "AddV2", "input": ["StatefulPartitionedCall/sequential_1/mobilenetv2_1.00_224_1/block_8_add_1/Add", "StatefulPartitionedCall/sequential_1/mobilenetv2_1.00_224_1/block_9_project_BN_1/Cast_5"], "attr": {"T": {"type": "DT_HALF"}}}, {"name": "StatefulPartitionedCall/sequential_1/mobilenetv2_1.00_224_1/block_10_expand_1/convolution", "op": "Conv2D", "input": ["StatefulPartitionedCall/sequential_1/mobilenetv2_1.00_224_1/block_9_add_1/Add", "StatefulPartitionedCall/sequential_1/mobilenetv2_1.00_224_1/block_10_expand_1/convolution/Cast"], "device": "/device:CPU:0", "attr": {"strides": {"list": {"i": ["1", "1", "1", "1"]}}, "data_format": {"s": "TkhXQw=="}, "T": {"type": "DT_HALF"}, "dilations": {"list": {"i": ["1", "1", "1", "1"]}}, "padding": {"s": "U0FNRQ=="}, "explicit_paddings": {"list": {}}, "use_cudnn_on_gpu": {"b": true}}}, {"name": "StatefulPartitionedCall/sequential_1/mobilenetv2_1.00_224_1/block_10_expand_BN_1/Cast", "op": "Cast", "input": ["StatefulPartitionedCall/sequential_1/mobilenetv2_1.00_224_1/block_10_expand_1/convolution"], "attr": {"Truncate": {"b": false}, "DstT": {"type": "DT_FLOAT"}, "SrcT": {"type": "DT_HALF"}}}, {"name": "StatefulPartitionedCall/sequential_1/mobilenetv2_1.00_224_1/block_10_expand_BN_1/batchnorm/mul_1", "op": "Mul", "input": ["StatefulPartitionedCall/sequential_1/mobilenetv2_1.00_224_1/block_10_expand_BN_1/Cast", "StatefulPartitionedCall/sequential_1/mobilenetv2_1.00_224_1/block_10_expand_BN_1/batchnorm/mul"], "attr": {"T": {"type": "DT_FLOAT"}}}, {"name": "StatefulPartitionedCall/sequential_1/mobilenetv2_1.00_224_1/block_10_expand_BN_1/batchnorm/add_1", "op": "AddV2", "input": ["StatefulPartitionedCall/sequential_1/mobilenetv2_1.00_224_1/block_10_expand_BN_1/batchnorm/mul_1", "StatefulPartitionedCall/sequential_1/mobilenetv2_1.00_224_1/block_10_expand_BN_1/batchnorm/sub"], "attr": {"T": {"type": "DT_FLOAT"}}}, {"name": "StatefulPartitionedCall/sequential_1/mobilenetv2_1.00_224_1/block_10_expand_BN_1/Cast_5", "op": "Cast", "input": ["StatefulPartitionedCall/sequential_1/mobilenetv2_1.00_224_1/block_10_expand_BN_1/batchnorm/add_1"], "attr": {"DstT": {"type": "DT_HALF"}, "Truncate": {"b": false}, "SrcT": {"type": "DT_FLOAT"}}}, {"name": "StatefulPartitionedCall/sequential_1/mobilenetv2_1.00_224_1/block_10_expand_relu_1/Relu6", "op": "Relu6", "input": ["StatefulPartitionedCall/sequential_1/mobilenetv2_1.00_224_1/block_10_expand_BN_1/Cast_5"], "attr": {"T": {"type": "DT_HALF"}}}, {"name": "StatefulPartitionedCall/sequential_1/mobilenetv2_1.00_224_1/block_10_depthwise_1/depthwise", "op": "DepthwiseConv2dNative", "input": ["StatefulPartitionedCall/sequential_1/mobilenetv2_1.00_224_1/block_10_expand_relu_1/Relu6", "StatefulPartitionedCall/sequential_1/mobilenetv2_1.00_224_1/block_10_depthwise_1/depthwise/Cast"], "attr": {"dilations": {"list": {"i": ["1", "1", "1", "1"]}}, "T": {"type": "DT_HALF"}, "data_format": {"s": "TkhXQw=="}, "explicit_paddings": {"list": {}}, "strides": {"list": {"i": ["1", "1", "1", "1"]}}, "padding": {"s": "U0FNRQ=="}}}, {"name": "StatefulPartitionedCall/sequential_1/mobilenetv2_1.00_224_1/block_10_depthwise_BN_1/Cast", "op": "Cast", "input": ["StatefulPartitionedCall/sequential_1/mobilenetv2_1.00_224_1/block_10_depthwise_1/depthwise"], "attr": {"DstT": {"type": "DT_FLOAT"}, "Truncate": {"b": false}, "SrcT": {"type": "DT_HALF"}}}, {"name": "StatefulPartitionedCall/sequential_1/mobilenetv2_1.00_224_1/block_10_depthwise_BN_1/batchnorm/mul_1", "op": "Mul", "input": ["StatefulPartitionedCall/sequential_1/mobilenetv2_1.00_224_1/block_10_depthwise_BN_1/Cast", "StatefulPartitionedCall/sequential_1/mobilenetv2_1.00_224_1/block_10_depthwise_BN_1/batchnorm/mul"], "attr": {"T": {"type": "DT_FLOAT"}}}, {"name": "StatefulPartitionedCall/sequential_1/mobilenetv2_1.00_224_1/block_10_depthwise_BN_1/batchnorm/add_1", "op": "AddV2", "input": ["StatefulPartitionedCall/sequential_1/mobilenetv2_1.00_224_1/block_10_depthwise_BN_1/batchnorm/mul_1", "StatefulPartitionedCall/sequential_1/mobilenetv2_1.00_224_1/block_10_depthwise_BN_1/batchnorm/sub"], "attr": {"T": {"type": "DT_FLOAT"}}}, {"name": "StatefulPartitionedCall/sequential_1/mobilenetv2_1.00_224_1/block_10_depthwise_BN_1/Cast_5", "op": "Cast", "input": ["StatefulPartitionedCall/sequential_1/mobilenetv2_1.00_224_1/block_10_depthwise_BN_1/batchnorm/add_1"], "attr": {"Truncate": {"b": false}, "DstT": {"type": "DT_HALF"}, "SrcT": {"type": "DT_FLOAT"}}}, {"name": "StatefulPartitionedCall/sequential_1/mobilenetv2_1.00_224_1/block_10_depthwise_relu_1/Relu6", "op": "Relu6", "input": ["StatefulPartitionedCall/sequential_1/mobilenetv2_1.00_224_1/block_10_depthwise_BN_1/Cast_5"], "attr": {"T": {"type": "DT_HALF"}}}, {"name": "StatefulPartitionedCall/sequential_1/mobilenetv2_1.00_224_1/block_10_project_1/convolution", "op": "Conv2D", "input": ["StatefulPartitionedCall/sequential_1/mobilenetv2_1.00_224_1/block_10_depthwise_relu_1/Relu6", "StatefulPartitionedCall/sequential_1/mobilenetv2_1.00_224_1/block_10_project_1/convolution/Cast"], "device": "/device:CPU:0", "attr": {"strides": {"list": {"i": ["1", "1", "1", "1"]}}, "T": {"type": "DT_HALF"}, "dilations": {"list": {"i": ["1", "1", "1", "1"]}}, "explicit_paddings": {"list": {}}, "padding": {"s": "U0FNRQ=="}, "use_cudnn_on_gpu": {"b": true}, "data_format": {"s": "TkhXQw=="}}}, {"name": "StatefulPartitionedCall/sequential_1/mobilenetv2_1.00_224_1/block_10_project_BN_1/Cast", "op": "Cast", "input": ["StatefulPartitionedCall/sequential_1/mobilenetv2_1.00_224_1/block_10_project_1/convolution"], "attr": {"DstT": {"type": "DT_FLOAT"}, "SrcT": {"type": "DT_HALF"}, "Truncate": {"b": false}}}, {"name": "StatefulPartitionedCall/sequential_1/mobilenetv2_1.00_224_1/block_10_project_BN_1/batchnorm/mul_1", "op": "Mul", "input": ["StatefulPartitionedCall/sequential_1/mobilenetv2_1.00_224_1/block_10_project_BN_1/Cast", "StatefulPartitionedCall/sequential_1/mobilenetv2_1.00_224_1/block_10_project_BN_1/batchnorm/mul"], "attr": {"T": {"type": "DT_FLOAT"}}}, {"name": "StatefulPartitionedCall/sequential_1/mobilenetv2_1.00_224_1/block_10_project_BN_1/batchnorm/add_1", "op": "AddV2", "input": ["StatefulPartitionedCall/sequential_1/mobilenetv2_1.00_224_1/block_10_project_BN_1/batchnorm/mul_1", "StatefulPartitionedCall/sequential_1/mobilenetv2_1.00_224_1/block_10_project_BN_1/batchnorm/sub"], "attr": {"T": {"type": "DT_FLOAT"}}}, {"name": "StatefulPartitionedCall/sequential_1/mobilenetv2_1.00_224_1/block_10_project_BN_1/Cast_5", "op": "Cast", "input": ["StatefulPartitionedCall/sequential_1/mobilenetv2_1.00_224_1/block_10_project_BN_1/batchnorm/add_1"], "attr": {"Truncate": {"b": false}, "DstT": {"type": "DT_HALF"}, "SrcT": {"type": "DT_FLOAT"}}}, {"name": "StatefulPartitionedCall/sequential_1/mobilenetv2_1.00_224_1/block_11_expand_1/convolution", "op": "Conv2D", "input": ["StatefulPartitionedCall/sequential_1/mobilenetv2_1.00_224_1/block_10_project_BN_1/Cast_5", "StatefulPartitionedCall/sequential_1/mobilenetv2_1.00_224_1/block_11_expand_1/convolution/Cast"], "device": "/device:CPU:0", "attr": {"dilations": {"list": {"i": ["1", "1", "1", "1"]}}, "explicit_paddings": {"list": {}}, "padding": {"s": "U0FNRQ=="}, "strides": {"list": {"i": ["1", "1", "1", "1"]}}, "T": {"type": "DT_HALF"}, "data_format": {"s": "TkhXQw=="}, "use_cudnn_on_gpu": {"b": true}}}, {"name": "StatefulPartitionedCall/sequential_1/mobilenetv2_1.00_224_1/block_11_expand_BN_1/Cast", "op": "Cast", "input": ["StatefulPartitionedCall/sequential_1/mobilenetv2_1.00_224_1/block_11_expand_1/convolution"], "attr": {"Truncate": {"b": false}, "SrcT": {"type": "DT_HALF"}, "DstT": {"type": "DT_FLOAT"}}}, {"name": "StatefulPartitionedCall/sequential_1/mobilenetv2_1.00_224_1/block_11_expand_BN_1/batchnorm/mul_1", "op": "Mul", "input": ["StatefulPartitionedCall/sequential_1/mobilenetv2_1.00_224_1/block_11_expand_BN_1/Cast", "StatefulPartitionedCall/sequential_1/mobilenetv2_1.00_224_1/block_11_expand_BN_1/batchnorm/mul"], "attr": {"T": {"type": "DT_FLOAT"}}}, {"name": "StatefulPartitionedCall/sequential_1/mobilenetv2_1.00_224_1/block_11_expand_BN_1/batchnorm/add_1", "op": "AddV2", "input": ["StatefulPartitionedCall/sequential_1/mobilenetv2_1.00_224_1/block_11_expand_BN_1/batchnorm/mul_1", "StatefulPartitionedCall/sequential_1/mobilenetv2_1.00_224_1/block_11_expand_BN_1/batchnorm/sub"], "attr": {"T": {"type": "DT_FLOAT"}}}, {"name": "StatefulPartitionedCall/sequential_1/mobilenetv2_1.00_224_1/block_11_expand_BN_1/Cast_5", "op": "Cast", "input": ["StatefulPartitionedCall/sequential_1/mobilenetv2_1.00_224_1/block_11_expand_BN_1/batchnorm/add_1"], "attr": {"SrcT": {"type": "DT_FLOAT"}, "DstT": {"type": "DT_HALF"}, "Truncate": {"b": false}}}, {"name": "StatefulPartitionedCall/sequential_1/mobilenetv2_1.00_224_1/block_11_expand_relu_1/Relu6", "op": "Relu6", "input": ["StatefulPartitionedCall/sequential_1/mobilenetv2_1.00_224_1/block_11_expand_BN_1/Cast_5"], "attr": {"T": {"type": "DT_HALF"}}}, {"name": "StatefulPartitionedCall/sequential_1/mobilenetv2_1.00_224_1/block_11_depthwise_1/depthwise", "op": "DepthwiseConv2dNative", "input": ["StatefulPartitionedCall/sequential_1/mobilenetv2_1.00_224_1/block_11_expand_relu_1/Relu6", "StatefulPartitionedCall/sequential_1/mobilenetv2_1.00_224_1/block_11_depthwise_1/depthwise/Cast"], "attr": {"explicit_paddings": {"list": {}}, "strides": {"list": {"i": ["1", "1", "1", "1"]}}, "T": {"type": "DT_HALF"}, "dilations": {"list": {"i": ["1", "1", "1", "1"]}}, "padding": {"s": "U0FNRQ=="}, "data_format": {"s": "TkhXQw=="}}}, {"name": "StatefulPartitionedCall/sequential_1/mobilenetv2_1.00_224_1/block_11_depthwise_BN_1/Cast", "op": "Cast", "input": ["StatefulPartitionedCall/sequential_1/mobilenetv2_1.00_224_1/block_11_depthwise_1/depthwise"], "attr": {"SrcT": {"type": "DT_HALF"}, "Truncate": {"b": false}, "DstT": {"type": "DT_FLOAT"}}}, {"name": "StatefulPartitionedCall/sequential_1/mobilenetv2_1.00_224_1/block_11_depthwise_BN_1/batchnorm/mul_1", "op": "Mul", "input": ["StatefulPartitionedCall/sequential_1/mobilenetv2_1.00_224_1/block_11_depthwise_BN_1/Cast", "StatefulPartitionedCall/sequential_1/mobilenetv2_1.00_224_1/block_11_depthwise_BN_1/batchnorm/mul"], "attr": {"T": {"type": "DT_FLOAT"}}}, {"name": "StatefulPartitionedCall/sequential_1/mobilenetv2_1.00_224_1/block_11_depthwise_BN_1/batchnorm/add_1", "op": "AddV2", "input": ["StatefulPartitionedCall/sequential_1/mobilenetv2_1.00_224_1/block_11_depthwise_BN_1/batchnorm/mul_1", "StatefulPartitionedCall/sequential_1/mobilenetv2_1.00_224_1/block_11_depthwise_BN_1/batchnorm/sub"], "attr": {"T": {"type": "DT_FLOAT"}}}, {"name": "StatefulPartitionedCall/sequential_1/mobilenetv2_1.00_224_1/block_11_depthwise_BN_1/Cast_5", "op": "Cast", "input": ["StatefulPartitionedCall/sequential_1/mobilenetv2_1.00_224_1/block_11_depthwise_BN_1/batchnorm/add_1"], "attr": {"Truncate": {"b": false}, "DstT": {"type": "DT_HALF"}, "SrcT": {"type": "DT_FLOAT"}}}, {"name": "StatefulPartitionedCall/sequential_1/mobilenetv2_1.00_224_1/block_11_depthwise_relu_1/Relu6", "op": "Relu6", "input": ["StatefulPartitionedCall/sequential_1/mobilenetv2_1.00_224_1/block_11_depthwise_BN_1/Cast_5"], "attr": {"T": {"type": "DT_HALF"}}}, {"name": "StatefulPartitionedCall/sequential_1/mobilenetv2_1.00_224_1/block_11_project_1/convolution", "op": "Conv2D", "input": ["StatefulPartitionedCall/sequential_1/mobilenetv2_1.00_224_1/block_11_depthwise_relu_1/Relu6", "StatefulPartitionedCall/sequential_1/mobilenetv2_1.00_224_1/block_11_project_1/convolution/Cast"], "device": "/device:CPU:0", "attr": {"use_cudnn_on_gpu": {"b": true}, "explicit_paddings": {"list": {}}, "dilations": {"list": {"i": ["1", "1", "1", "1"]}}, "data_format": {"s": "TkhXQw=="}, "strides": {"list": {"i": ["1", "1", "1", "1"]}}, "padding": {"s": "U0FNRQ=="}, "T": {"type": "DT_HALF"}}}, {"name": "StatefulPartitionedCall/sequential_1/mobilenetv2_1.00_224_1/block_11_project_BN_1/Cast", "op": "Cast", "input": ["StatefulPartitionedCall/sequential_1/mobilenetv2_1.00_224_1/block_11_project_1/convolution"], "attr": {"SrcT": {"type": "DT_HALF"}, "DstT": {"type": "DT_FLOAT"}, "Truncate": {"b": false}}}, {"name": "StatefulPartitionedCall/sequential_1/mobilenetv2_1.00_224_1/block_11_project_BN_1/batchnorm/mul_1", "op": "Mul", "input": ["StatefulPartitionedCall/sequential_1/mobilenetv2_1.00_224_1/block_11_project_BN_1/Cast", "StatefulPartitionedCall/sequential_1/mobilenetv2_1.00_224_1/block_11_project_BN_1/batchnorm/mul"], "attr": {"T": {"type": "DT_FLOAT"}}}, {"name": "StatefulPartitionedCall/sequential_1/mobilenetv2_1.00_224_1/block_11_project_BN_1/batchnorm/add_1", "op": "AddV2", "input": ["StatefulPartitionedCall/sequential_1/mobilenetv2_1.00_224_1/block_11_project_BN_1/batchnorm/mul_1", "StatefulPartitionedCall/sequential_1/mobilenetv2_1.00_224_1/block_11_project_BN_1/batchnorm/sub"], "attr": {"T": {"type": "DT_FLOAT"}}}, {"name": "StatefulPartitionedCall/sequential_1/mobilenetv2_1.00_224_1/block_11_project_BN_1/Cast_5", "op": "Cast", "input": ["StatefulPartitionedCall/sequential_1/mobilenetv2_1.00_224_1/block_11_project_BN_1/batchnorm/add_1"], "attr": {"Truncate": {"b": false}, "DstT": {"type": "DT_HALF"}, "SrcT": {"type": "DT_FLOAT"}}}, {"name": "StatefulPartitionedCall/sequential_1/mobilenetv2_1.00_224_1/block_11_add_1/Add", "op": "AddV2", "input": ["StatefulPartitionedCall/sequential_1/mobilenetv2_1.00_224_1/block_10_project_BN_1/Cast_5", "StatefulPartitionedCall/sequential_1/mobilenetv2_1.00_224_1/block_11_project_BN_1/Cast_5"], "attr": {"T": {"type": "DT_HALF"}}}, {"name": "StatefulPartitionedCall/sequential_1/mobilenetv2_1.00_224_1/block_12_expand_1/convolution", "op": "Conv2D", "input": ["StatefulPartitionedCall/sequential_1/mobilenetv2_1.00_224_1/block_11_add_1/Add", "StatefulPartitionedCall/sequential_1/mobilenetv2_1.00_224_1/block_12_expand_1/convolution/Cast"], "device": "/device:CPU:0", "attr": {"padding": {"s": "U0FNRQ=="}, "strides": {"list": {"i": ["1", "1", "1", "1"]}}, "T": {"type": "DT_HALF"}, "explicit_paddings": {"list": {}}, "use_cudnn_on_gpu": {"b": true}, "data_format": {"s": "TkhXQw=="}, "dilations": {"list": {"i": ["1", "1", "1", "1"]}}}}, {"name": "StatefulPartitionedCall/sequential_1/mobilenetv2_1.00_224_1/block_12_expand_BN_1/Cast", "op": "Cast", "input": ["StatefulPartitionedCall/sequential_1/mobilenetv2_1.00_224_1/block_12_expand_1/convolution"], "attr": {"DstT": {"type": "DT_FLOAT"}, "SrcT": {"type": "DT_HALF"}, "Truncate": {"b": false}}}, {"name": "StatefulPartitionedCall/sequential_1/mobilenetv2_1.00_224_1/block_12_expand_BN_1/batchnorm/mul_1", "op": "Mul", "input": ["StatefulPartitionedCall/sequential_1/mobilenetv2_1.00_224_1/block_12_expand_BN_1/Cast", "StatefulPartitionedCall/sequential_1/mobilenetv2_1.00_224_1/block_12_expand_BN_1/batchnorm/mul"], "attr": {"T": {"type": "DT_FLOAT"}}}, {"name": "StatefulPartitionedCall/sequential_1/mobilenetv2_1.00_224_1/block_12_expand_BN_1/batchnorm/add_1", "op": "AddV2", "input": ["StatefulPartitionedCall/sequential_1/mobilenetv2_1.00_224_1/block_12_expand_BN_1/batchnorm/mul_1", "StatefulPartitionedCall/sequential_1/mobilenetv2_1.00_224_1/block_12_expand_BN_1/batchnorm/sub"], "attr": {"T": {"type": "DT_FLOAT"}}}, {"name": "StatefulPartitionedCall/sequential_1/mobilenetv2_1.00_224_1/block_12_expand_BN_1/Cast_5", "op": "Cast", "input": ["StatefulPartitionedCall/sequential_1/mobilenetv2_1.00_224_1/block_12_expand_BN_1/batchnorm/add_1"], "attr": {"SrcT": {"type": "DT_FLOAT"}, "Truncate": {"b": false}, "DstT": {"type": "DT_HALF"}}}, {"name": "StatefulPartitionedCall/sequential_1/mobilenetv2_1.00_224_1/block_12_expand_relu_1/Relu6", "op": "Relu6", "input": ["StatefulPartitionedCall/sequential_1/mobilenetv2_1.00_224_1/block_12_expand_BN_1/Cast_5"], "attr": {"T": {"type": "DT_HALF"}}}, {"name": "StatefulPartitionedCall/sequential_1/mobilenetv2_1.00_224_1/block_12_depthwise_1/depthwise", "op": "DepthwiseConv2dNative", "input": ["StatefulPartitionedCall/sequential_1/mobilenetv2_1.00_224_1/block_12_expand_relu_1/Relu6", "StatefulPartitionedCall/sequential_1/mobilenetv2_1.00_224_1/block_12_depthwise_1/depthwise/Cast"], "attr": {"dilations": {"list": {"i": ["1", "1", "1", "1"]}}, "padding": {"s": "U0FNRQ=="}, "data_format": {"s": "TkhXQw=="}, "strides": {"list": {"i": ["1", "1", "1", "1"]}}, "T": {"type": "DT_HALF"}, "explicit_paddings": {"list": {}}}}, {"name": "StatefulPartitionedCall/sequential_1/mobilenetv2_1.00_224_1/block_12_depthwise_BN_1/Cast", "op": "Cast", "input": ["StatefulPartitionedCall/sequential_1/mobilenetv2_1.00_224_1/block_12_depthwise_1/depthwise"], "attr": {"Truncate": {"b": false}, "SrcT": {"type": "DT_HALF"}, "DstT": {"type": "DT_FLOAT"}}}, {"name": "StatefulPartitionedCall/sequential_1/mobilenetv2_1.00_224_1/block_12_depthwise_BN_1/batchnorm/mul_1", "op": "Mul", "input": ["StatefulPartitionedCall/sequential_1/mobilenetv2_1.00_224_1/block_12_depthwise_BN_1/Cast", "StatefulPartitionedCall/sequential_1/mobilenetv2_1.00_224_1/block_12_depthwise_BN_1/batchnorm/mul"], "attr": {"T": {"type": "DT_FLOAT"}}}, {"name": "StatefulPartitionedCall/sequential_1/mobilenetv2_1.00_224_1/block_12_depthwise_BN_1/batchnorm/add_1", "op": "AddV2", "input": ["StatefulPartitionedCall/sequential_1/mobilenetv2_1.00_224_1/block_12_depthwise_BN_1/batchnorm/mul_1", "StatefulPartitionedCall/sequential_1/mobilenetv2_1.00_224_1/block_12_depthwise_BN_1/batchnorm/sub"], "attr": {"T": {"type": "DT_FLOAT"}}}, {"name": "StatefulPartitionedCall/sequential_1/mobilenetv2_1.00_224_1/block_12_depthwise_BN_1/Cast_5", "op": "Cast", "input": ["StatefulPartitionedCall/sequential_1/mobilenetv2_1.00_224_1/block_12_depthwise_BN_1/batchnorm/add_1"], "attr": {"Truncate": {"b": false}, "SrcT": {"type": "DT_FLOAT"}, "DstT": {"type": "DT_HALF"}}}, {"name": "StatefulPartitionedCall/sequential_1/mobilenetv2_1.00_224_1/block_12_depthwise_relu_1/Relu6", "op": "Relu6", "input": ["StatefulPartitionedCall/sequential_1/mobilenetv2_1.00_224_1/block_12_depthwise_BN_1/Cast_5"], "attr": {"T": {"type": "DT_HALF"}}}, {"name": "StatefulPartitionedCall/sequential_1/mobilenetv2_1.00_224_1/block_12_project_1/convolution", "op": "Conv2D", "input": ["StatefulPartitionedCall/sequential_1/mobilenetv2_1.00_224_1/block_12_depthwise_relu_1/Relu6", "StatefulPartitionedCall/sequential_1/mobilenetv2_1.00_224_1/block_12_project_1/convolution/Cast"], "device": "/device:CPU:0", "attr": {"explicit_paddings": {"list": {}}, "T": {"type": "DT_HALF"}, "strides": {"list": {"i": ["1", "1", "1", "1"]}}, "data_format": {"s": "TkhXQw=="}, "dilations": {"list": {"i": ["1", "1", "1", "1"]}}, "padding": {"s": "U0FNRQ=="}, "use_cudnn_on_gpu": {"b": true}}}, {"name": "StatefulPartitionedCall/sequential_1/mobilenetv2_1.00_224_1/block_12_project_BN_1/Cast", "op": "Cast", "input": ["StatefulPartitionedCall/sequential_1/mobilenetv2_1.00_224_1/block_12_project_1/convolution"], "attr": {"SrcT": {"type": "DT_HALF"}, "DstT": {"type": "DT_FLOAT"}, "Truncate": {"b": false}}}, {"name": "StatefulPartitionedCall/sequential_1/mobilenetv2_1.00_224_1/block_12_project_BN_1/batchnorm/mul_1", "op": "Mul", "input": ["StatefulPartitionedCall/sequential_1/mobilenetv2_1.00_224_1/block_12_project_BN_1/Cast", "StatefulPartitionedCall/sequential_1/mobilenetv2_1.00_224_1/block_12_project_BN_1/batchnorm/mul"], "attr": {"T": {"type": "DT_FLOAT"}}}, {"name": "StatefulPartitionedCall/sequential_1/mobilenetv2_1.00_224_1/block_12_project_BN_1/batchnorm/add_1", "op": "AddV2", "input": ["StatefulPartitionedCall/sequential_1/mobilenetv2_1.00_224_1/block_12_project_BN_1/batchnorm/mul_1", "StatefulPartitionedCall/sequential_1/mobilenetv2_1.00_224_1/block_12_project_BN_1/batchnorm/sub"], "attr": {"T": {"type": "DT_FLOAT"}}}, {"name": "StatefulPartitionedCall/sequential_1/mobilenetv2_1.00_224_1/block_12_project_BN_1/Cast_5", "op": "Cast", "input": ["StatefulPartitionedCall/sequential_1/mobilenetv2_1.00_224_1/block_12_project_BN_1/batchnorm/add_1"], "attr": {"Truncate": {"b": false}, "DstT": {"type": "DT_HALF"}, "SrcT": {"type": "DT_FLOAT"}}}, {"name": "StatefulPartitionedCall/sequential_1/mobilenetv2_1.00_224_1/block_12_add_1/Add", "op": "AddV2", "input": ["StatefulPartitionedCall/sequential_1/mobilenetv2_1.00_224_1/block_11_add_1/Add", "StatefulPartitionedCall/sequential_1/mobilenetv2_1.00_224_1/block_12_project_BN_1/Cast_5"], "attr": {"T": {"type": "DT_HALF"}}}, {"name": "StatefulPartitionedCall/sequential_1/mobilenetv2_1.00_224_1/block_13_expand_1/convolution", "op": "Conv2D", "input": ["StatefulPartitionedCall/sequential_1/mobilenetv2_1.00_224_1/block_12_add_1/Add", "StatefulPartitionedCall/sequential_1/mobilenetv2_1.00_224_1/block_13_expand_1/convolution/Cast"], "device": "/device:CPU:0", "attr": {"strides": {"list": {"i": ["1", "1", "1", "1"]}}, "use_cudnn_on_gpu": {"b": true}, "data_format": {"s": "TkhXQw=="}, "dilations": {"list": {"i": ["1", "1", "1", "1"]}}, "explicit_paddings": {"list": {}}, "T": {"type": "DT_HALF"}, "padding": {"s": "U0FNRQ=="}}}, {"name": "StatefulPartitionedCall/sequential_1/mobilenetv2_1.00_224_1/block_13_expand_BN_1/Cast", "op": "Cast", "input": ["StatefulPartitionedCall/sequential_1/mobilenetv2_1.00_224_1/block_13_expand_1/convolution"], "attr": {"Truncate": {"b": false}, "DstT": {"type": "DT_FLOAT"}, "SrcT": {"type": "DT_HALF"}}}, {"name": "StatefulPartitionedCall/sequential_1/mobilenetv2_1.00_224_1/block_13_expand_BN_1/batchnorm/mul_1", "op": "Mul", "input": ["StatefulPartitionedCall/sequential_1/mobilenetv2_1.00_224_1/block_13_expand_BN_1/Cast", "StatefulPartitionedCall/sequential_1/mobilenetv2_1.00_224_1/block_13_expand_BN_1/batchnorm/mul"], "attr": {"T": {"type": "DT_FLOAT"}}}, {"name": "StatefulPartitionedCall/sequential_1/mobilenetv2_1.00_224_1/block_13_expand_BN_1/batchnorm/add_1", "op": "AddV2", "input": ["StatefulPartitionedCall/sequential_1/mobilenetv2_1.00_224_1/block_13_expand_BN_1/batchnorm/mul_1", "StatefulPartitionedCall/sequential_1/mobilenetv2_1.00_224_1/block_13_expand_BN_1/batchnorm/sub"], "attr": {"T": {"type": "DT_FLOAT"}}}, {"name": "StatefulPartitionedCall/sequential_1/mobilenetv2_1.00_224_1/block_13_expand_BN_1/Cast_5", "op": "Cast", "input": ["StatefulPartitionedCall/sequential_1/mobilenetv2_1.00_224_1/block_13_expand_BN_1/batchnorm/add_1"], "attr": {"Truncate": {"b": false}, "DstT": {"type": "DT_HALF"}, "SrcT": {"type": "DT_FLOAT"}}}, {"name": "StatefulPartitionedCall/sequential_1/mobilenetv2_1.00_224_1/block_13_expand_relu_1/Relu6", "op": "Relu6", "input": ["StatefulPartitionedCall/sequential_1/mobilenetv2_1.00_224_1/block_13_expand_BN_1/Cast_5"], "attr": {"T": {"type": "DT_HALF"}}}, {"name": "StatefulPartitionedCall/sequential_1/mobilenetv2_1.00_224_1/block_13_pad_1/Pad", "op": "Pad", "input": ["StatefulPartitionedCall/sequential_1/mobilenetv2_1.00_224_1/block_13_expand_relu_1/Relu6", "StatefulPartitionedCall/sequential_1/mobilenetv2_1.00_224_1/block_13_pad_1/Const"], "attr": {"Tpaddings": {"type": "DT_INT32"}, "T": {"type": "DT_HALF"}}}, {"name": "StatefulPartitionedCall/sequential_1/mobilenetv2_1.00_224_1/block_13_depthwise_1/depthwise", "op": "DepthwiseConv2dNative", "input": ["StatefulPartitionedCall/sequential_1/mobilenetv2_1.00_224_1/block_13_pad_1/Pad", "StatefulPartitionedCall/sequential_1/mobilenetv2_1.00_224_1/block_13_depthwise_1/depthwise/Cast"], "attr": {"data_format": {"s": "TkhXQw=="}, "strides": {"list": {"i": ["1", "2", "2", "1"]}}, "explicit_paddings": {"list": {}}, "T": {"type": "DT_HALF"}, "padding": {"s": "VkFMSUQ="}, "dilations": {"list": {"i": ["1", "1", "1", "1"]}}}}, {"name": "StatefulPartitionedCall/sequential_1/mobilenetv2_1.00_224_1/block_13_depthwise_BN_1/Cast", "op": "Cast", "input": ["StatefulPartitionedCall/sequential_1/mobilenetv2_1.00_224_1/block_13_depthwise_1/depthwise"], "attr": {"SrcT": {"type": "DT_HALF"}, "Truncate": {"b": false}, "DstT": {"type": "DT_FLOAT"}}}, {"name": "StatefulPartitionedCall/sequential_1/mobilenetv2_1.00_224_1/block_13_depthwise_BN_1/batchnorm/mul_1", "op": "Mul", "input": ["StatefulPartitionedCall/sequential_1/mobilenetv2_1.00_224_1/block_13_depthwise_BN_1/Cast", "StatefulPartitionedCall/sequential_1/mobilenetv2_1.00_224_1/block_13_depthwise_BN_1/batchnorm/mul"], "attr": {"T": {"type": "DT_FLOAT"}}}, {"name": "StatefulPartitionedCall/sequential_1/mobilenetv2_1.00_224_1/block_13_depthwise_BN_1/batchnorm/add_1", "op": "AddV2", "input": ["StatefulPartitionedCall/sequential_1/mobilenetv2_1.00_224_1/block_13_depthwise_BN_1/batchnorm/mul_1", "StatefulPartitionedCall/sequential_1/mobilenetv2_1.00_224_1/block_13_depthwise_BN_1/batchnorm/sub"], "attr": {"T": {"type": "DT_FLOAT"}}}, {"name": "StatefulPartitionedCall/sequential_1/mobilenetv2_1.00_224_1/block_13_depthwise_BN_1/Cast_5", "op": "Cast", "input": ["StatefulPartitionedCall/sequential_1/mobilenetv2_1.00_224_1/block_13_depthwise_BN_1/batchnorm/add_1"], "attr": {"Truncate": {"b": false}, "DstT": {"type": "DT_HALF"}, "SrcT": {"type": "DT_FLOAT"}}}, {"name": "StatefulPartitionedCall/sequential_1/mobilenetv2_1.00_224_1/block_13_depthwise_relu_1/Relu6", "op": "Relu6", "input": ["StatefulPartitionedCall/sequential_1/mobilenetv2_1.00_224_1/block_13_depthwise_BN_1/Cast_5"], "attr": {"T": {"type": "DT_HALF"}}}, {"name": "StatefulPartitionedCall/sequential_1/mobilenetv2_1.00_224_1/block_13_project_1/convolution", "op": "Conv2D", "input": ["StatefulPartitionedCall/sequential_1/mobilenetv2_1.00_224_1/block_13_depthwise_relu_1/Relu6", "StatefulPartitionedCall/sequential_1/mobilenetv2_1.00_224_1/block_13_project_1/convolution/Cast"], "device": "/device:CPU:0", "attr": {"T": {"type": "DT_HALF"}, "dilations": {"list": {"i": ["1", "1", "1", "1"]}}, "strides": {"list": {"i": ["1", "1", "1", "1"]}}, "explicit_paddings": {"list": {}}, "padding": {"s": "U0FNRQ=="}, "use_cudnn_on_gpu": {"b": true}, "data_format": {"s": "TkhXQw=="}}}, {"name": "StatefulPartitionedCall/sequential_1/mobilenetv2_1.00_224_1/block_13_project_BN_1/Cast", "op": "Cast", "input": ["StatefulPartitionedCall/sequential_1/mobilenetv2_1.00_224_1/block_13_project_1/convolution"], "attr": {"Truncate": {"b": false}, "SrcT": {"type": "DT_HALF"}, "DstT": {"type": "DT_FLOAT"}}}, {"name": "StatefulPartitionedCall/sequential_1/mobilenetv2_1.00_224_1/block_13_project_BN_1/batchnorm/mul_1", "op": "Mul", "input": ["StatefulPartitionedCall/sequential_1/mobilenetv2_1.00_224_1/block_13_project_BN_1/Cast", "StatefulPartitionedCall/sequential_1/mobilenetv2_1.00_224_1/block_13_project_BN_1/batchnorm/mul"], "attr": {"T": {"type": "DT_FLOAT"}}}, {"name": "StatefulPartitionedCall/sequential_1/mobilenetv2_1.00_224_1/block_13_project_BN_1/batchnorm/add_1", "op": "AddV2", "input": ["StatefulPartitionedCall/sequential_1/mobilenetv2_1.00_224_1/block_13_project_BN_1/batchnorm/mul_1", "StatefulPartitionedCall/sequential_1/mobilenetv2_1.00_224_1/block_13_project_BN_1/batchnorm/sub"], "attr": {"T": {"type": "DT_FLOAT"}}}, {"name": "StatefulPartitionedCall/sequential_1/mobilenetv2_1.00_224_1/block_13_project_BN_1/Cast_5", "op": "Cast", "input": ["StatefulPartitionedCall/sequential_1/mobilenetv2_1.00_224_1/block_13_project_BN_1/batchnorm/add_1"], "attr": {"DstT": {"type": "DT_HALF"}, "Truncate": {"b": false}, "SrcT": {"type": "DT_FLOAT"}}}, {"name": "StatefulPartitionedCall/sequential_1/mobilenetv2_1.00_224_1/block_14_expand_1/convolution", "op": "Conv2D", "input": ["StatefulPartitionedCall/sequential_1/mobilenetv2_1.00_224_1/block_13_project_BN_1/Cast_5", "StatefulPartitionedCall/sequential_1/mobilenetv2_1.00_224_1/block_14_expand_1/convolution/Cast"], "device": "/device:CPU:0", "attr": {"use_cudnn_on_gpu": {"b": true}, "strides": {"list": {"i": ["1", "1", "1", "1"]}}, "padding": {"s": "U0FNRQ=="}, "T": {"type": "DT_HALF"}, "data_format": {"s": "TkhXQw=="}, "dilations": {"list": {"i": ["1", "1", "1", "1"]}}, "explicit_paddings": {"list": {}}}}, {"name": "StatefulPartitionedCall/sequential_1/mobilenetv2_1.00_224_1/block_14_expand_BN_1/Cast", "op": "Cast", "input": ["StatefulPartitionedCall/sequential_1/mobilenetv2_1.00_224_1/block_14_expand_1/convolution"], "attr": {"SrcT": {"type": "DT_HALF"}, "Truncate": {"b": false}, "DstT": {"type": "DT_FLOAT"}}}, {"name": "StatefulPartitionedCall/sequential_1/mobilenetv2_1.00_224_1/block_14_expand_BN_1/batchnorm/mul_1", "op": "Mul", "input": ["StatefulPartitionedCall/sequential_1/mobilenetv2_1.00_224_1/block_14_expand_BN_1/Cast", "StatefulPartitionedCall/sequential_1/mobilenetv2_1.00_224_1/block_14_expand_BN_1/batchnorm/mul"], "attr": {"T": {"type": "DT_FLOAT"}}}, {"name": "StatefulPartitionedCall/sequential_1/mobilenetv2_1.00_224_1/block_14_expand_BN_1/batchnorm/add_1", "op": "AddV2", "input": ["StatefulPartitionedCall/sequential_1/mobilenetv2_1.00_224_1/block_14_expand_BN_1/batchnorm/mul_1", "StatefulPartitionedCall/sequential_1/mobilenetv2_1.00_224_1/block_14_expand_BN_1/batchnorm/sub"], "attr": {"T": {"type": "DT_FLOAT"}}}, {"name": "StatefulPartitionedCall/sequential_1/mobilenetv2_1.00_224_1/block_14_expand_BN_1/Cast_5", "op": "Cast", "input": ["StatefulPartitionedCall/sequential_1/mobilenetv2_1.00_224_1/block_14_expand_BN_1/batchnorm/add_1"], "attr": {"SrcT": {"type": "DT_FLOAT"}, "Truncate": {"b": false}, "DstT": {"type": "DT_HALF"}}}, {"name": "StatefulPartitionedCall/sequential_1/mobilenetv2_1.00_224_1/block_14_expand_relu_1/Relu6", "op": "Relu6", "input": ["StatefulPartitionedCall/sequential_1/mobilenetv2_1.00_224_1/block_14_expand_BN_1/Cast_5"], "attr": {"T": {"type": "DT_HALF"}}}, {"name": "StatefulPartitionedCall/sequential_1/mobilenetv2_1.00_224_1/block_14_depthwise_1/depthwise", "op": "DepthwiseConv2dNative", "input": ["StatefulPartitionedCall/sequential_1/mobilenetv2_1.00_224_1/block_14_expand_relu_1/Relu6", "StatefulPartitionedCall/sequential_1/mobilenetv2_1.00_224_1/block_14_depthwise_1/depthwise/Cast"], "attr": {"padding": {"s": "U0FNRQ=="}, "T": {"type": "DT_HALF"}, "dilations": {"list": {"i": ["1", "1", "1", "1"]}}, "explicit_paddings": {"list": {}}, "strides": {"list": {"i": ["1", "1", "1", "1"]}}, "data_format": {"s": "TkhXQw=="}}}, {"name": "StatefulPartitionedCall/sequential_1/mobilenetv2_1.00_224_1/block_14_depthwise_BN_1/Cast", "op": "Cast", "input": ["StatefulPartitionedCall/sequential_1/mobilenetv2_1.00_224_1/block_14_depthwise_1/depthwise"], "attr": {"SrcT": {"type": "DT_HALF"}, "DstT": {"type": "DT_FLOAT"}, "Truncate": {"b": false}}}, {"name": "StatefulPartitionedCall/sequential_1/mobilenetv2_1.00_224_1/block_14_depthwise_BN_1/batchnorm/mul_1", "op": "Mul", "input": ["StatefulPartitionedCall/sequential_1/mobilenetv2_1.00_224_1/block_14_depthwise_BN_1/Cast", "StatefulPartitionedCall/sequential_1/mobilenetv2_1.00_224_1/block_14_depthwise_BN_1/batchnorm/mul"], "attr": {"T": {"type": "DT_FLOAT"}}}, {"name": "StatefulPartitionedCall/sequential_1/mobilenetv2_1.00_224_1/block_14_depthwise_BN_1/batchnorm/add_1", "op": "AddV2", "input": ["StatefulPartitionedCall/sequential_1/mobilenetv2_1.00_224_1/block_14_depthwise_BN_1/batchnorm/mul_1", "StatefulPartitionedCall/sequential_1/mobilenetv2_1.00_224_1/block_14_depthwise_BN_1/batchnorm/sub"], "attr": {"T": {"type": "DT_FLOAT"}}}, {"name": "StatefulPartitionedCall/sequential_1/mobilenetv2_1.00_224_1/block_14_depthwise_BN_1/Cast_5", "op": "Cast", "input": ["StatefulPartitionedCall/sequential_1/mobilenetv2_1.00_224_1/block_14_depthwise_BN_1/batchnorm/add_1"], "attr": {"Truncate": {"b": false}, "SrcT": {"type": "DT_FLOAT"}, "DstT": {"type": "DT_HALF"}}}, {"name": "StatefulPartitionedCall/sequential_1/mobilenetv2_1.00_224_1/block_14_depthwise_relu_1/Relu6", "op": "Relu6", "input": ["StatefulPartitionedCall/sequential_1/mobilenetv2_1.00_224_1/block_14_depthwise_BN_1/Cast_5"], "attr": {"T": {"type": "DT_HALF"}}}, {"name": "StatefulPartitionedCall/sequential_1/mobilenetv2_1.00_224_1/block_14_project_1/convolution", "op": "Conv2D", "input": ["StatefulPartitionedCall/sequential_1/mobilenetv2_1.00_224_1/block_14_depthwise_relu_1/Relu6", "StatefulPartitionedCall/sequential_1/mobilenetv2_1.00_224_1/block_14_project_1/convolution/Cast"], "device": "/device:CPU:0", "attr": {"data_format": {"s": "TkhXQw=="}, "strides": {"list": {"i": ["1", "1", "1", "1"]}}, "dilations": {"list": {"i": ["1", "1", "1", "1"]}}, "T": {"type": "DT_HALF"}, "use_cudnn_on_gpu": {"b": true}, "padding": {"s": "U0FNRQ=="}, "explicit_paddings": {"list": {}}}}, {"name": "StatefulPartitionedCall/sequential_1/mobilenetv2_1.00_224_1/block_14_project_BN_1/Cast", "op": "Cast", "input": ["StatefulPartitionedCall/sequential_1/mobilenetv2_1.00_224_1/block_14_project_1/convolution"], "attr": {"DstT": {"type": "DT_FLOAT"}, "SrcT": {"type": "DT_HALF"}, "Truncate": {"b": false}}}, {"name": "StatefulPartitionedCall/sequential_1/mobilenetv2_1.00_224_1/block_14_project_BN_1/batchnorm/mul_1", "op": "Mul", "input": ["StatefulPartitionedCall/sequential_1/mobilenetv2_1.00_224_1/block_14_project_BN_1/Cast", "StatefulPartitionedCall/sequential_1/mobilenetv2_1.00_224_1/block_14_project_BN_1/batchnorm/mul"], "attr": {"T": {"type": "DT_FLOAT"}}}, {"name": "StatefulPartitionedCall/sequential_1/mobilenetv2_1.00_224_1/block_14_project_BN_1/batchnorm/add_1", "op": "AddV2", "input": ["StatefulPartitionedCall/sequential_1/mobilenetv2_1.00_224_1/block_14_project_BN_1/batchnorm/mul_1", "StatefulPartitionedCall/sequential_1/mobilenetv2_1.00_224_1/block_14_project_BN_1/batchnorm/sub"], "attr": {"T": {"type": "DT_FLOAT"}}}, {"name": "StatefulPartitionedCall/sequential_1/mobilenetv2_1.00_224_1/block_14_project_BN_1/Cast_5", "op": "Cast", "input": ["StatefulPartitionedCall/sequential_1/mobilenetv2_1.00_224_1/block_14_project_BN_1/batchnorm/add_1"], "attr": {"SrcT": {"type": "DT_FLOAT"}, "DstT": {"type": "DT_HALF"}, "Truncate": {"b": false}}}, {"name": "StatefulPartitionedCall/sequential_1/mobilenetv2_1.00_224_1/block_14_add_1/Add", "op": "AddV2", "input": ["StatefulPartitionedCall/sequential_1/mobilenetv2_1.00_224_1/block_13_project_BN_1/Cast_5", "StatefulPartitionedCall/sequential_1/mobilenetv2_1.00_224_1/block_14_project_BN_1/Cast_5"], "attr": {"T": {"type": "DT_HALF"}}}, {"name": "StatefulPartitionedCall/sequential_1/mobilenetv2_1.00_224_1/block_15_expand_1/convolution", "op": "Conv2D", "input": ["StatefulPartitionedCall/sequential_1/mobilenetv2_1.00_224_1/block_14_add_1/Add", "StatefulPartitionedCall/sequential_1/mobilenetv2_1.00_224_1/block_15_expand_1/convolution/Cast"], "device": "/device:CPU:0", "attr": {"dilations": {"list": {"i": ["1", "1", "1", "1"]}}, "padding": {"s": "U0FNRQ=="}, "explicit_paddings": {"list": {}}, "use_cudnn_on_gpu": {"b": true}, "strides": {"list": {"i": ["1", "1", "1", "1"]}}, "T": {"type": "DT_HALF"}, "data_format": {"s": "TkhXQw=="}}}, {"name": "StatefulPartitionedCall/sequential_1/mobilenetv2_1.00_224_1/block_15_expand_BN_1/Cast", "op": "Cast", "input": ["StatefulPartitionedCall/sequential_1/mobilenetv2_1.00_224_1/block_15_expand_1/convolution"], "attr": {"SrcT": {"type": "DT_HALF"}, "Truncate": {"b": false}, "DstT": {"type": "DT_FLOAT"}}}, {"name": "StatefulPartitionedCall/sequential_1/mobilenetv2_1.00_224_1/block_15_expand_BN_1/batchnorm/mul_1", "op": "Mul", "input": ["StatefulPartitionedCall/sequential_1/mobilenetv2_1.00_224_1/block_15_expand_BN_1/Cast", "StatefulPartitionedCall/sequential_1/mobilenetv2_1.00_224_1/block_15_expand_BN_1/batchnorm/mul"], "attr": {"T": {"type": "DT_FLOAT"}}}, {"name": "StatefulPartitionedCall/sequential_1/mobilenetv2_1.00_224_1/block_15_expand_BN_1/batchnorm/add_1", "op": "AddV2", "input": ["StatefulPartitionedCall/sequential_1/mobilenetv2_1.00_224_1/block_15_expand_BN_1/batchnorm/mul_1", "StatefulPartitionedCall/sequential_1/mobilenetv2_1.00_224_1/block_15_expand_BN_1/batchnorm/sub"], "attr": {"T": {"type": "DT_FLOAT"}}}, {"name": "StatefulPartitionedCall/sequential_1/mobilenetv2_1.00_224_1/block_15_expand_BN_1/Cast_5", "op": "Cast", "input": ["StatefulPartitionedCall/sequential_1/mobilenetv2_1.00_224_1/block_15_expand_BN_1/batchnorm/add_1"], "attr": {"SrcT": {"type": "DT_FLOAT"}, "DstT": {"type": "DT_HALF"}, "Truncate": {"b": false}}}, {"name": "StatefulPartitionedCall/sequential_1/mobilenetv2_1.00_224_1/block_15_expand_relu_1/Relu6", "op": "Relu6", "input": ["StatefulPartitionedCall/sequential_1/mobilenetv2_1.00_224_1/block_15_expand_BN_1/Cast_5"], "attr": {"T": {"type": "DT_HALF"}}}, {"name": "StatefulPartitionedCall/sequential_1/mobilenetv2_1.00_224_1/block_15_depthwise_1/depthwise", "op": "DepthwiseConv2dNative", "input": ["StatefulPartitionedCall/sequential_1/mobilenetv2_1.00_224_1/block_15_expand_relu_1/Relu6", "StatefulPartitionedCall/sequential_1/mobilenetv2_1.00_224_1/block_15_depthwise_1/depthwise/Cast"], "attr": {"explicit_paddings": {"list": {}}, "dilations": {"list": {"i": ["1", "1", "1", "1"]}}, "data_format": {"s": "TkhXQw=="}, "strides": {"list": {"i": ["1", "1", "1", "1"]}}, "padding": {"s": "U0FNRQ=="}, "T": {"type": "DT_HALF"}}}, {"name": "StatefulPartitionedCall/sequential_1/mobilenetv2_1.00_224_1/block_15_depthwise_BN_1/Cast", "op": "Cast", "input": ["StatefulPartitionedCall/sequential_1/mobilenetv2_1.00_224_1/block_15_depthwise_1/depthwise"], "attr": {"DstT": {"type": "DT_FLOAT"}, "Truncate": {"b": false}, "SrcT": {"type": "DT_HALF"}}}, {"name": "StatefulPartitionedCall/sequential_1/mobilenetv2_1.00_224_1/block_15_depthwise_BN_1/batchnorm/mul_1", "op": "Mul", "input": ["StatefulPartitionedCall/sequential_1/mobilenetv2_1.00_224_1/block_15_depthwise_BN_1/Cast", "StatefulPartitionedCall/sequential_1/mobilenetv2_1.00_224_1/block_15_depthwise_BN_1/batchnorm/mul"], "attr": {"T": {"type": "DT_FLOAT"}}}, {"name": "StatefulPartitionedCall/sequential_1/mobilenetv2_1.00_224_1/block_15_depthwise_BN_1/batchnorm/add_1", "op": "AddV2", "input": ["StatefulPartitionedCall/sequential_1/mobilenetv2_1.00_224_1/block_15_depthwise_BN_1/batchnorm/mul_1", "StatefulPartitionedCall/sequential_1/mobilenetv2_1.00_224_1/block_15_depthwise_BN_1/batchnorm/sub"], "attr": {"T": {"type": "DT_FLOAT"}}}, {"name": "StatefulPartitionedCall/sequential_1/mobilenetv2_1.00_224_1/block_15_depthwise_BN_1/Cast_5", "op": "Cast", "input": ["StatefulPartitionedCall/sequential_1/mobilenetv2_1.00_224_1/block_15_depthwise_BN_1/batchnorm/add_1"], "attr": {"SrcT": {"type": "DT_FLOAT"}, "DstT": {"type": "DT_HALF"}, "Truncate": {"b": false}}}, {"name": "StatefulPartitionedCall/sequential_1/mobilenetv2_1.00_224_1/block_15_depthwise_relu_1/Relu6", "op": "Relu6", "input": ["StatefulPartitionedCall/sequential_1/mobilenetv2_1.00_224_1/block_15_depthwise_BN_1/Cast_5"], "attr": {"T": {"type": "DT_HALF"}}}, {"name": "StatefulPartitionedCall/sequential_1/mobilenetv2_1.00_224_1/block_15_project_1/convolution", "op": "Conv2D", "input": ["StatefulPartitionedCall/sequential_1/mobilenetv2_1.00_224_1/block_15_depthwise_relu_1/Relu6", "StatefulPartitionedCall/sequential_1/mobilenetv2_1.00_224_1/block_15_project_1/convolution/Cast"], "device": "/device:CPU:0", "attr": {"padding": {"s": "U0FNRQ=="}, "strides": {"list": {"i": ["1", "1", "1", "1"]}}, "explicit_paddings": {"list": {}}, "dilations": {"list": {"i": ["1", "1", "1", "1"]}}, "T": {"type": "DT_HALF"}, "data_format": {"s": "TkhXQw=="}, "use_cudnn_on_gpu": {"b": true}}}, {"name": "StatefulPartitionedCall/sequential_1/mobilenetv2_1.00_224_1/block_15_project_BN_1/Cast", "op": "Cast", "input": ["StatefulPartitionedCall/sequential_1/mobilenetv2_1.00_224_1/block_15_project_1/convolution"], "attr": {"Truncate": {"b": false}, "SrcT": {"type": "DT_HALF"}, "DstT": {"type": "DT_FLOAT"}}}, {"name": "StatefulPartitionedCall/sequential_1/mobilenetv2_1.00_224_1/block_15_project_BN_1/batchnorm/mul_1", "op": "Mul", "input": ["StatefulPartitionedCall/sequential_1/mobilenetv2_1.00_224_1/block_15_project_BN_1/Cast", "StatefulPartitionedCall/sequential_1/mobilenetv2_1.00_224_1/block_15_project_BN_1/batchnorm/mul"], "attr": {"T": {"type": "DT_FLOAT"}}}, {"name": "StatefulPartitionedCall/sequential_1/mobilenetv2_1.00_224_1/block_15_project_BN_1/batchnorm/add_1", "op": "AddV2", "input": ["StatefulPartitionedCall/sequential_1/mobilenetv2_1.00_224_1/block_15_project_BN_1/batchnorm/mul_1", "StatefulPartitionedCall/sequential_1/mobilenetv2_1.00_224_1/block_15_project_BN_1/batchnorm/sub"], "attr": {"T": {"type": "DT_FLOAT"}}}, {"name": "StatefulPartitionedCall/sequential_1/mobilenetv2_1.00_224_1/block_15_project_BN_1/Cast_5", "op": "Cast", "input": ["StatefulPartitionedCall/sequential_1/mobilenetv2_1.00_224_1/block_15_project_BN_1/batchnorm/add_1"], "attr": {"DstT": {"type": "DT_HALF"}, "Truncate": {"b": false}, "SrcT": {"type": "DT_FLOAT"}}}, {"name": "StatefulPartitionedCall/sequential_1/mobilenetv2_1.00_224_1/block_15_add_1/Add", "op": "AddV2", "input": ["StatefulPartitionedCall/sequential_1/mobilenetv2_1.00_224_1/block_14_add_1/Add", "StatefulPartitionedCall/sequential_1/mobilenetv2_1.00_224_1/block_15_project_BN_1/Cast_5"], "attr": {"T": {"type": "DT_HALF"}}}, {"name": "StatefulPartitionedCall/sequential_1/mobilenetv2_1.00_224_1/block_16_expand_1/convolution", "op": "Conv2D", "input": ["StatefulPartitionedCall/sequential_1/mobilenetv2_1.00_224_1/block_15_add_1/Add", "StatefulPartitionedCall/sequential_1/mobilenetv2_1.00_224_1/block_16_expand_1/convolution/Cast"], "device": "/device:CPU:0", "attr": {"data_format": {"s": "TkhXQw=="}, "dilations": {"list": {"i": ["1", "1", "1", "1"]}}, "explicit_paddings": {"list": {}}, "padding": {"s": "U0FNRQ=="}, "strides": {"list": {"i": ["1", "1", "1", "1"]}}, "T": {"type": "DT_HALF"}, "use_cudnn_on_gpu": {"b": true}}}, {"name": "StatefulPartitionedCall/sequential_1/mobilenetv2_1.00_224_1/block_16_expand_BN_1/Cast", "op": "Cast", "input": ["StatefulPartitionedCall/sequential_1/mobilenetv2_1.00_224_1/block_16_expand_1/convolution"], "attr": {"SrcT": {"type": "DT_HALF"}, "DstT": {"type": "DT_FLOAT"}, "Truncate": {"b": false}}}, {"name": "StatefulPartitionedCall/sequential_1/mobilenetv2_1.00_224_1/block_16_expand_BN_1/batchnorm/mul_1", "op": "Mul", "input": ["StatefulPartitionedCall/sequential_1/mobilenetv2_1.00_224_1/block_16_expand_BN_1/Cast", "StatefulPartitionedCall/sequential_1/mobilenetv2_1.00_224_1/block_16_expand_BN_1/batchnorm/mul"], "attr": {"T": {"type": "DT_FLOAT"}}}, {"name": "StatefulPartitionedCall/sequential_1/mobilenetv2_1.00_224_1/block_16_expand_BN_1/batchnorm/add_1", "op": "AddV2", "input": ["StatefulPartitionedCall/sequential_1/mobilenetv2_1.00_224_1/block_16_expand_BN_1/batchnorm/mul_1", "StatefulPartitionedCall/sequential_1/mobilenetv2_1.00_224_1/block_16_expand_BN_1/batchnorm/sub"], "attr": {"T": {"type": "DT_FLOAT"}}}, {"name": "StatefulPartitionedCall/sequential_1/mobilenetv2_1.00_224_1/block_16_expand_BN_1/Cast_5", "op": "Cast", "input": ["StatefulPartitionedCall/sequential_1/mobilenetv2_1.00_224_1/block_16_expand_BN_1/batchnorm/add_1"], "attr": {"SrcT": {"type": "DT_FLOAT"}, "DstT": {"type": "DT_HALF"}, "Truncate": {"b": false}}}, {"name": "StatefulPartitionedCall/sequential_1/mobilenetv2_1.00_224_1/block_16_expand_relu_1/Relu6", "op": "Relu6", "input": ["StatefulPartitionedCall/sequential_1/mobilenetv2_1.00_224_1/block_16_expand_BN_1/Cast_5"], "attr": {"T": {"type": "DT_HALF"}}}, {"name": "StatefulPartitionedCall/sequential_1/mobilenetv2_1.00_224_1/block_16_depthwise_1/depthwise", "op": "DepthwiseConv2dNative", "input": ["StatefulPartitionedCall/sequential_1/mobilenetv2_1.00_224_1/block_16_expand_relu_1/Relu6", "StatefulPartitionedCall/sequential_1/mobilenetv2_1.00_224_1/block_16_depthwise_1/depthwise/Cast"], "attr": {"dilations": {"list": {"i": ["1", "1", "1", "1"]}}, "strides": {"list": {"i": ["1", "1", "1", "1"]}}, "explicit_paddings": {"list": {}}, "T": {"type": "DT_HALF"}, "data_format": {"s": "TkhXQw=="}, "padding": {"s": "U0FNRQ=="}}}, {"name": "StatefulPartitionedCall/sequential_1/mobilenetv2_1.00_224_1/block_16_depthwise_BN_1/Cast", "op": "Cast", "input": ["StatefulPartitionedCall/sequential_1/mobilenetv2_1.00_224_1/block_16_depthwise_1/depthwise"], "attr": {"DstT": {"type": "DT_FLOAT"}, "SrcT": {"type": "DT_HALF"}, "Truncate": {"b": false}}}, {"name": "StatefulPartitionedCall/sequential_1/mobilenetv2_1.00_224_1/block_16_depthwise_BN_1/batchnorm/mul_1", "op": "Mul", "input": ["StatefulPartitionedCall/sequential_1/mobilenetv2_1.00_224_1/block_16_depthwise_BN_1/Cast", "StatefulPartitionedCall/sequential_1/mobilenetv2_1.00_224_1/block_16_depthwise_BN_1/batchnorm/mul"], "attr": {"T": {"type": "DT_FLOAT"}}}, {"name": "StatefulPartitionedCall/sequential_1/mobilenetv2_1.00_224_1/block_16_depthwise_BN_1/batchnorm/add_1", "op": "AddV2", "input": ["StatefulPartitionedCall/sequential_1/mobilenetv2_1.00_224_1/block_16_depthwise_BN_1/batchnorm/mul_1", "StatefulPartitionedCall/sequential_1/mobilenetv2_1.00_224_1/block_16_depthwise_BN_1/batchnorm/sub"], "attr": {"T": {"type": "DT_FLOAT"}}}, {"name": "StatefulPartitionedCall/sequential_1/mobilenetv2_1.00_224_1/block_16_depthwise_BN_1/Cast_5", "op": "Cast", "input": ["StatefulPartitionedCall/sequential_1/mobilenetv2_1.00_224_1/block_16_depthwise_BN_1/batchnorm/add_1"], "attr": {"Truncate": {"b": false}, "DstT": {"type": "DT_HALF"}, "SrcT": {"type": "DT_FLOAT"}}}, {"name": "StatefulPartitionedCall/sequential_1/mobilenetv2_1.00_224_1/block_16_depthwise_relu_1/Relu6", "op": "Relu6", "input": ["StatefulPartitionedCall/sequential_1/mobilenetv2_1.00_224_1/block_16_depthwise_BN_1/Cast_5"], "attr": {"T": {"type": "DT_HALF"}}}, {"name": "StatefulPartitionedCall/sequential_1/mobilenetv2_1.00_224_1/block_16_project_1/convolution", "op": "Conv2D", "input": ["StatefulPartitionedCall/sequential_1/mobilenetv2_1.00_224_1/block_16_depthwise_relu_1/Relu6", "StatefulPartitionedCall/sequential_1/mobilenetv2_1.00_224_1/block_16_project_1/convolution/Cast"], "device": "/device:CPU:0", "attr": {"data_format": {"s": "TkhXQw=="}, "T": {"type": "DT_HALF"}, "use_cudnn_on_gpu": {"b": true}, "explicit_paddings": {"list": {}}, "dilations": {"list": {"i": ["1", "1", "1", "1"]}}, "strides": {"list": {"i": ["1", "1", "1", "1"]}}, "padding": {"s": "U0FNRQ=="}}}, {"name": "StatefulPartitionedCall/sequential_1/mobilenetv2_1.00_224_1/block_16_project_BN_1/Cast", "op": "Cast", "input": ["StatefulPartitionedCall/sequential_1/mobilenetv2_1.00_224_1/block_16_project_1/convolution"], "attr": {"Truncate": {"b": false}, "DstT": {"type": "DT_FLOAT"}, "SrcT": {"type": "DT_HALF"}}}, {"name": "StatefulPartitionedCall/sequential_1/mobilenetv2_1.00_224_1/block_16_project_BN_1/batchnorm/mul_1", "op": "Mul", "input": ["StatefulPartitionedCall/sequential_1/mobilenetv2_1.00_224_1/block_16_project_BN_1/Cast", "StatefulPartitionedCall/sequential_1/mobilenetv2_1.00_224_1/block_16_project_BN_1/batchnorm/mul"], "attr": {"T": {"type": "DT_FLOAT"}}}, {"name": "StatefulPartitionedCall/sequential_1/mobilenetv2_1.00_224_1/block_16_project_BN_1/batchnorm/add_1", "op": "AddV2", "input": ["StatefulPartitionedCall/sequential_1/mobilenetv2_1.00_224_1/block_16_project_BN_1/batchnorm/mul_1", "StatefulPartitionedCall/sequential_1/mobilenetv2_1.00_224_1/block_16_project_BN_1/batchnorm/sub"], "attr": {"T": {"type": "DT_FLOAT"}}}, {"name": "StatefulPartitionedCall/sequential_1/mobilenetv2_1.00_224_1/block_16_project_BN_1/Cast_5", "op": "Cast", "input": ["StatefulPartitionedCall/sequential_1/mobilenetv2_1.00_224_1/block_16_project_BN_1/batchnorm/add_1"], "attr": {"DstT": {"type": "DT_HALF"}, "Truncate": {"b": false}, "SrcT": {"type": "DT_FLOAT"}}}, {"name": "StatefulPartitionedCall/sequential_1/mobilenetv2_1.00_224_1/Conv_1_1/convolution", "op": "Conv2D", "input": ["StatefulPartitionedCall/sequential_1/mobilenetv2_1.00_224_1/block_16_project_BN_1/Cast_5", "StatefulPartitionedCall/sequential_1/mobilenetv2_1.00_224_1/Conv_1_1/convolution/Cast"], "device": "/device:CPU:0", "attr": {"strides": {"list": {"i": ["1", "1", "1", "1"]}}, "T": {"type": "DT_HALF"}, "dilations": {"list": {"i": ["1", "1", "1", "1"]}}, "data_format": {"s": "TkhXQw=="}, "explicit_paddings": {"list": {}}, "padding": {"s": "VkFMSUQ="}, "use_cudnn_on_gpu": {"b": true}}}, {"name": "StatefulPartitionedCall/sequential_1/mobilenetv2_1.00_224_1/Conv_1_bn_1/Cast", "op": "Cast", "input": ["StatefulPartitionedCall/sequential_1/mobilenetv2_1.00_224_1/Conv_1_1/convolution"], "attr": {"DstT": {"type": "DT_FLOAT"}, "Truncate": {"b": false}, "SrcT": {"type": "DT_HALF"}}}, {"name": "StatefulPartitionedCall/sequential_1/mobilenetv2_1.00_224_1/Conv_1_bn_1/batchnorm/mul_1", "op": "Mul", "input": ["StatefulPartitionedCall/sequential_1/mobilenetv2_1.00_224_1/Conv_1_bn_1/Cast", "StatefulPartitionedCall/sequential_1/mobilenetv2_1.00_224_1/Conv_1_bn_1/batchnorm/mul"], "attr": {"T": {"type": "DT_FLOAT"}}}, {"name": "StatefulPartitionedCall/sequential_1/mobilenetv2_1.00_224_1/Conv_1_bn_1/batchnorm/add_1", "op": "AddV2", "input": ["StatefulPartitionedCall/sequential_1/mobilenetv2_1.00_224_1/Conv_1_bn_1/batchnorm/mul_1", "StatefulPartitionedCall/sequential_1/mobilenetv2_1.00_224_1/Conv_1_bn_1/batchnorm/sub"], "attr": {"T": {"type": "DT_FLOAT"}}}, {"name": "StatefulPartitionedCall/sequential_1/mobilenetv2_1.00_224_1/Conv_1_bn_1/Cast_5", "op": "Cast", "input": ["StatefulPartitionedCall/sequential_1/mobilenetv2_1.00_224_1/Conv_1_bn_1/batchnorm/add_1"], "attr": {"Truncate": {"b": false}, "SrcT": {"type": "DT_FLOAT"}, "DstT": {"type": "DT_HALF"}}}, {"name": "StatefulPartitionedCall/sequential_1/mobilenetv2_1.00_224_1/out_relu_1/Relu6", "op": "Relu6", "input": ["StatefulPartitionedCall/sequential_1/mobilenetv2_1.00_224_1/Conv_1_bn_1/Cast_5"], "attr": {"T": {"type": "DT_HALF"}}}, {"name": "StatefulPartitionedCall/sequential_1/conv2d_1/convolution", "op": "Conv2D", "input": ["StatefulPartitionedCall/sequential_1/mobilenetv2_1.00_224_1/out_relu_1/Relu6", "StatefulPartitionedCall/sequential_1/conv2d_1/convolution/Cast"], "device": "/device:CPU:0", "attr": {"use_cudnn_on_gpu": {"b": true}, "T": {"type": "DT_HALF"}, "dilations": {"list": {"i": ["1", "1", "1", "1"]}}, "strides": {"list": {"i": ["1", "1", "1", "1"]}}, "data_format": {"s": "TkhXQw=="}, "padding": {"s": "U0FNRQ=="}, "explicit_paddings": {"list": {}}}}, {"name": "StatefulPartitionedCall/sequential_1/conv2d_1/BiasAdd", "op": "BiasAdd", "input": ["StatefulPartitionedCall/sequential_1/conv2d_1/convolution", "StatefulPartitionedCall/sequential_1/conv2d_1/Squeeze"], "attr": {"T": {"type": "DT_HALF"}, "data_format": {"s": "TkhXQw=="}}}, {"name": "StatefulPartitionedCall/sequential_1/conv2d_1/Relu", "op": "Relu", "input": ["StatefulPartitionedCall/sequential_1/conv2d_1/BiasAdd"], "attr": {"T": {"type": "DT_HALF"}}}, {"name": "StatefulPartitionedCall/sequential_1/max_pooling2d_1/MaxPool2d", "op": "MaxPool", "input": ["StatefulPartitionedCall/sequential_1/conv2d_1/Relu"], "attr": {"padding": {"s": "VkFMSUQ="}, "ksize": {"list": {"i": ["1", "2", "2", "1"]}}, "data_format": {"s": "TkhXQw=="}, "strides": {"list": {"i": ["1", "2", "2", "1"]}}, "T": {"type": "DT_HALF"}, "explicit_paddings": {"list": {}}}}, {"name": "StatefulPartitionedCall/sequential_1/batch_normalization_1/Cast", "op": "Cast", "input": ["StatefulPartitionedCall/sequential_1/max_pooling2d_1/MaxPool2d"], "attr": {"SrcT": {"type": "DT_HALF"}, "DstT": {"type": "DT_FLOAT"}, "Truncate": {"b": false}}}, {"name": "StatefulPartitionedCall/sequential_1/batch_normalization_1/batchnorm/mul_1", "op": "Mul", "input": ["StatefulPartitionedCall/sequential_1/batch_normalization_1/Cast", "StatefulPartitionedCall/sequential_1/batch_normalization_1/batchnorm/mul"], "attr": {"T": {"type": "DT_FLOAT"}}}, {"name": "StatefulPartitionedCall/sequential_1/batch_normalization_1/batchnorm/add_1", "op": "AddV2", "input": ["StatefulPartitionedCall/sequential_1/batch_normalization_1/batchnorm/mul_1", "StatefulPartitionedCall/sequential_1/batch_normalization_1/batchnorm/sub"], "attr": {"T": {"type": "DT_FLOAT"}}}, {"name": "StatefulPartitionedCall/sequential_1/batch_normalization_1/Cast_5", "op": "Cast", "input": ["StatefulPartitionedCall/sequential_1/batch_normalization_1/batchnorm/add_1"], "attr": {"SrcT": {"type": "DT_FLOAT"}, "Truncate": {"b": false}, "DstT": {"type": "DT_HALF"}}}, {"name": "StatefulPartitionedCall/sequential_1/global_average_pooling2d_1/Cast", "op": "Cast", "input": ["StatefulPartitionedCall/sequential_1/batch_normalization_1/Cast_5"], "attr": {"Truncate": {"b": false}, "DstT": {"type": "DT_FLOAT"}, "SrcT": {"type": "DT_HALF"}}}, {"name": "StatefulPartitionedCall/sequential_1/global_average_pooling2d_1/Mean", "op": "Mean", "input": ["StatefulPartitionedCall/sequential_1/global_average_pooling2d_1/Cast", "StatefulPartitionedCall/sequential_1/global_average_pooling2d_1/Mean/reduction_indices"], "attr": {"T": {"type": "DT_FLOAT"}, "keep_dims": {"b": false}, "Tidx": {"type": "DT_INT32"}}}, {"name": "StatefulPartitionedCall/sequential_1/global_average_pooling2d_1/Cast_1", "op": "Cast", "input": ["StatefulPartitionedCall/sequential_1/global_average_pooling2d_1/Mean"], "attr": {"Truncate": {"b": false}, "DstT": {"type": "DT_HALF"}, "SrcT": {"type": "DT_FLOAT"}}}, {"name": "StatefulPartitionedCall/sequential_1/dense_1/MatMul", "op": "MatMul", "input": ["StatefulPartitionedCall/sequential_1/global_average_pooling2d_1/Cast_1", "StatefulPartitionedCall/sequential_1/dense_1/Cast/Cast"], "device": "/device:CPU:0", "attr": {"transpose_a": {"b": false}, "transpose_b": {"b": false}, "T": {"type": "DT_HALF"}, "grad_b": {"b": false}, "grad_a": {"b": false}}}, {"name": "StatefulPartitionedCall/sequential_1/dense_1/BiasAdd", "op": "BiasAdd", "input": ["StatefulPartitionedCall/sequential_1/dense_1/MatMul", "StatefulPartitionedCall/sequential_1/dense_1/BiasAdd/Cast"], "attr": {"data_format": {"s": "TkhXQw=="}, "T": {"type": "DT_HALF"}}}, {"name": "StatefulPartitionedCall/sequential_1/dense_1/Relu", "op": "Relu", "input": ["StatefulPartitionedCall/sequential_1/dense_1/BiasAdd"], "attr": {"T": {"type": "DT_HALF"}}}, {"name": "StatefulPartitionedCall/sequential_1/Cast", "op": "Cast", "input": ["StatefulPartitionedCall/sequential_1/dense_1/Relu"], "attr": {"Truncate": {"b": false}, "DstT": {"type": "DT_FLOAT"}, "SrcT": {"type": "DT_HALF"}}}, {"name": "StatefulPartitionedCall/sequential_1/dense_1_2/BiasAdd", "op": "_FusedMatMul", "input": ["StatefulPartitionedCall/sequential_1/Cast", "StatefulPartitionedCall/sequential_1/dense_1_2/Cast/ReadVariableOp", "StatefulPartitionedCall/sequential_1/dense_1_2/BiasAdd/ReadVariableOp"], "device": "/device:CPU:0", "attr": {"fused_ops": {"list": {"s": ["Qmlhc0FkZA=="]}}, "transpose_a": {"b": false}, "leakyrelu_alpha": {"f": 0.2}, "T": {"type": "DT_FLOAT"}, "num_args": {"i": "1"}, "transpose_b": {"b": false}, "epsilon": {"f": 0.0}}}, {"name": "StatefulPartitionedCall/sequential_1/dense_1_2/Softmax", "op": "Softmax", "input": ["StatefulPartitionedCall/sequential_1/dense_1_2/BiasAdd"], "attr": {"T": {"type": "DT_FLOAT"}}}, {"name": "Identity", "op": "Identity", "input": ["StatefulPartitionedCall/sequential_1/dense_1_2/Softmax"], "attr": {"T": {"type": "DT_FLOAT"}}}], "library": {}, "versions": {"producer": 1994}}, "weightsManifest": [{"paths": ["group1-shard1of3.bin", "group1-shard2of3.bin", "group1-shard3of3.bin"], "weights": [{"name": "StatefulPartitionedCall/sequential_1/mobilenetv2_1.00_224_1/Conv1_1/convolution/Cast", "shape": [3, 3, 3, 32], "dtype": "float32"}, {"name": "StatefulPartitionedCall/sequential_1/mobilenetv2_1.00_224_1/bn_Conv1_1/batchnorm/mul", "shape": [32], "dtype": "float32"}, {"name": "StatefulPartitionedCall/sequential_1/mobilenetv2_1.00_224_1/bn_Conv1_1/batchnorm/sub", "shape": [32], "dtype": "float32"}, {"name": "StatefulPartitionedCall/sequential_1/mobilenetv2_1.00_224_1/expanded_conv_depthwise_1/depthwise/Cast", "shape": [3, 3, 32, 1], "dtype": "float32"}, {"name": "StatefulPartitionedCall/sequential_1/mobilenetv2_1.00_224_1/expanded_conv_depthwise_BN_1/batchnorm/mul", "shape": [32], "dtype": "float32"}, {"name": "StatefulPartitionedCall/sequential_1/mobilenetv2_1.00_224_1/expanded_conv_depthwise_BN_1/batchnorm/sub", "shape": [32], "dtype": "float32"}, {"name": "StatefulPartitionedCall/sequential_1/mobilenetv2_1.00_224_1/expanded_conv_project_1/convolution/Cast", "shape": [1, 1, 32, 16], "dtype": "float32"}, {"name": "StatefulPartitionedCall/sequential_1/mobilenetv2_1.00_224_1/expanded_conv_project_BN_1/batchnorm/mul", "shape": [16], "dtype": "float32"}, {"name": "StatefulPartitionedCall/sequential_1/mobilenetv2_1.00_224_1/expanded_conv_project_BN_1/batchnorm/sub", "shape": [16], "dtype": "float32"}, {"name": "StatefulPartitionedCall/sequential_1/mobilenetv2_1.00_224_1/block_1_expand_1/convolution/Cast", "shape": [1, 1, 16, 96], "dtype": "float32"}, {"name": "StatefulPartitionedCall/sequential_1/mobilenetv2_1.00_224_1/block_1_expand_BN_1/batchnorm/mul", "shape": [96], "dtype": "float32"}, {"name": "StatefulPartitionedCall/sequential_1/mobilenetv2_1.00_224_1/block_1_expand_BN_1/batchnorm/sub", "shape": [96], "dtype": "float32"}, {"name": "StatefulPartitionedCall/sequential_1/mobilenetv2_1.00_224_1/block_1_pad_1/Const", "shape": [4, 2], "dtype": "int32"}, {"name": "StatefulPartitionedCall/sequential_1/mobilenetv2_1.00_224_1/block_1_depthwise_1/depthwise/Cast", "shape": [3, 3, 96, 1], "dtype": "float32"}, {"name": "StatefulPartitionedCall/sequential_1/mobilenetv2_1.00_224_1/block_1_depthwise_BN_1/batchnorm/mul", "shape": [96], "dtype": "float32"}, {"name": "StatefulPartitionedCall/sequential_1/mobilenetv2_1.00_224_1/block_1_depthwise_BN_1/batchnorm/sub", "shape": [96], "dtype": "float32"}, {"name": "StatefulPartitionedCall/sequential_1/mobilenetv2_1.00_224_1/block_1_project_1/convolution/Cast", "shape": [1, 1, 96, 24], "dtype": "float32"}, {"name": "StatefulPartitionedCall/sequential_1/mobilenetv2_1.00_224_1/block_1_project_BN_1/batchnorm/mul", "shape": [24], "dtype": "float32"}, {"name": "StatefulPartitionedCall/sequential_1/mobilenetv2_1.00_224_1/block_1_project_BN_1/batchnorm/sub", "shape": [24], "dtype": "float32"}, {"name": "StatefulPartitionedCall/sequential_1/mobilenetv2_1.00_224_1/block_2_expand_1/convolution/Cast", "shape": [1, 1, 24, 144], "dtype": "float32"}, {"name": "StatefulPartitionedCall/sequential_1/mobilenetv2_1.00_224_1/block_2_expand_BN_1/batchnorm/mul", "shape": [144], "dtype": "float32"}, {"name": "StatefulPartitionedCall/sequential_1/mobilenetv2_1.00_224_1/block_2_expand_BN_1/batchnorm/sub", "shape": [144], "dtype": "float32"}, {"name": "StatefulPartitionedCall/sequential_1/mobilenetv2_1.00_224_1/block_2_depthwise_1/depthwise/Cast", "shape": [3, 3, 144, 1], "dtype": "float32"}, {"name": "StatefulPartitionedCall/sequential_1/mobilenetv2_1.00_224_1/block_2_depthwise_BN_1/batchnorm/mul", "shape": [144], "dtype": "float32"}, {"name": "StatefulPartitionedCall/sequential_1/mobilenetv2_1.00_224_1/block_2_depthwise_BN_1/batchnorm/sub", "shape": [144], "dtype": "float32"}, {"name": "StatefulPartitionedCall/sequential_1/mobilenetv2_1.00_224_1/block_2_project_1/convolution/Cast", "shape": [1, 1, 144, 24], "dtype": "float32"}, {"name": "StatefulPartitionedCall/sequential_1/mobilenetv2_1.00_224_1/block_2_project_BN_1/batchnorm/mul", "shape": [24], "dtype": "float32"}, {"name": "StatefulPartitionedCall/sequential_1/mobilenetv2_1.00_224_1/block_2_project_BN_1/batchnorm/sub", "shape": [24], "dtype": "float32"}, {"name": "StatefulPartitionedCall/sequential_1/mobilenetv2_1.00_224_1/block_3_expand_1/convolution/Cast", "shape": [1, 1, 24, 144], "dtype": "float32"}, {"name": "StatefulPartitionedCall/sequential_1/mobilenetv2_1.00_224_1/block_3_expand_BN_1/batchnorm/mul", "shape": [144], "dtype": "float32"}, {"name": "StatefulPartitionedCall/sequential_1/mobilenetv2_1.00_224_1/block_3_expand_BN_1/batchnorm/sub", "shape": [144], "dtype": "float32"}, {"name": "StatefulPartitionedCall/sequential_1/mobilenetv2_1.00_224_1/block_3_pad_1/Const", "shape": [4, 2], "dtype": "int32"}, {"name": "StatefulPartitionedCall/sequential_1/mobilenetv2_1.00_224_1/block_3_depthwise_1/depthwise/Cast", "shape": [3, 3, 144, 1], "dtype": "float32"}, {"name": "StatefulPartitionedCall/sequential_1/mobilenetv2_1.00_224_1/block_3_depthwise_BN_1/batchnorm/mul", "shape": [144], "dtype": "float32"}, {"name": "StatefulPartitionedCall/sequential_1/mobilenetv2_1.00_224_1/block_3_depthwise_BN_1/batchnorm/sub", "shape": [144], "dtype": "float32"}, {"name": "StatefulPartitionedCall/sequential_1/mobilenetv2_1.00_224_1/block_3_project_1/convolution/Cast", "shape": [1, 1, 144, 32], "dtype": "float32"}, {"name": "StatefulPartitionedCall/sequential_1/mobilenetv2_1.00_224_1/block_3_project_BN_1/batchnorm/mul", "shape": [32], "dtype": "float32"}, {"name": "StatefulPartitionedCall/sequential_1/mobilenetv2_1.00_224_1/block_3_project_BN_1/batchnorm/sub", "shape": [32], "dtype": "float32"}, {"name": "StatefulPartitionedCall/sequential_1/mobilenetv2_1.00_224_1/block_4_expand_1/convolution/Cast", "shape": [1, 1, 32, 192], "dtype": "float32"}, {"name": "StatefulPartitionedCall/sequential_1/mobilenetv2_1.00_224_1/block_4_expand_BN_1/batchnorm/mul", "shape": [192], "dtype": "float32"}, {"name": "StatefulPartitionedCall/sequential_1/mobilenetv2_1.00_224_1/block_4_expand_BN_1/batchnorm/sub", "shape": [192], "dtype": "float32"}, {"name": "StatefulPartitionedCall/sequential_1/mobilenetv2_1.00_224_1/block_4_depthwise_1/depthwise/Cast", "shape": [3, 3, 192, 1], "dtype": "float32"}, {"name": "StatefulPartitionedCall/sequential_1/mobilenetv2_1.00_224_1/block_4_depthwise_BN_1/batchnorm/mul", "shape": [192], "dtype": "float32"}, {"name": "StatefulPartitionedCall/sequential_1/mobilenetv2_1.00_224_1/block_4_depthwise_BN_1/batchnorm/sub", "shape": [192], "dtype": "float32"}, {"name": "StatefulPartitionedCall/sequential_1/mobilenetv2_1.00_224_1/block_4_project_1/convolution/Cast", "shape": [1, 1, 192, 32], "dtype": "float32"}, {"name": "StatefulPartitionedCall/sequential_1/mobilenetv2_1.00_224_1/block_4_project_BN_1/batchnorm/mul", "shape": [32], "dtype": "float32"}, {"name": "StatefulPartitionedCall/sequential_1/mobilenetv2_1.00_224_1/block_4_project_BN_1/batchnorm/sub", "shape": [32], "dtype": "float32"}, {"name": "StatefulPartitionedCall/sequential_1/mobilenetv2_1.00_224_1/block_5_expand_1/convolution/Cast", "shape": [1, 1, 32, 192], "dtype": "float32"}, {"name": "StatefulPartitionedCall/sequential_1/mobilenetv2_1.00_224_1/block_5_expand_BN_1/batchnorm/mul", "shape": [192], "dtype": "float32"}, {"name": "StatefulPartitionedCall/sequential_1/mobilenetv2_1.00_224_1/block_5_expand_BN_1/batchnorm/sub", "shape": [192], "dtype": "float32"}, {"name": "StatefulPartitionedCall/sequential_1/mobilenetv2_1.00_224_1/block_5_depthwise_1/depthwise/Cast", "shape": [3, 3, 192, 1], "dtype": "float32"}, {"name": "StatefulPartitionedCall/sequential_1/mobilenetv2_1.00_224_1/block_5_depthwise_BN_1/batchnorm/mul", "shape": [192], "dtype": "float32"}, {"name": "StatefulPartitionedCall/sequential_1/mobilenetv2_1.00_224_1/block_5_depthwise_BN_1/batchnorm/sub", "shape": [192], "dtype": "float32"}, {"name": "StatefulPartitionedCall/sequential_1/mobilenetv2_1.00_224_1/block_5_project_1/convolution/Cast", "shape": [1, 1, 192, 32], "dtype": "float32"}, {"name": "StatefulPartitionedCall/sequential_1/mobilenetv2_1.00_224_1/block_5_project_BN_1/batchnorm/mul", "shape": [32], "dtype": "float32"}, {"name": "StatefulPartitionedCall/sequential_1/mobilenetv2_1.00_224_1/block_5_project_BN_1/batchnorm/sub", "shape": [32], "dtype": "float32"}, {"name": "StatefulPartitionedCall/sequential_1/mobilenetv2_1.00_224_1/block_6_expand_1/convolution/Cast", "shape": [1, 1, 32, 192], "dtype": "float32"}, {"name": "StatefulPartitionedCall/sequential_1/mobilenetv2_1.00_224_1/block_6_expand_BN_1/batchnorm/mul", "shape": [192], "dtype": "float32"}, {"name": "StatefulPartitionedCall/sequential_1/mobilenetv2_1.00_224_1/block_6_expand_BN_1/batchnorm/sub", "shape": [192], "dtype": "float32"}, {"name": "StatefulPartitionedCall/sequential_1/mobilenetv2_1.00_224_1/block_6_pad_1/Const", "shape": [4, 2], "dtype": "int32"}, {"name": "StatefulPartitionedCall/sequential_1/mobilenetv2_1.00_224_1/block_6_depthwise_1/depthwise/Cast", "shape": [3, 3, 192, 1], "dtype": "float32"}, {"name": "StatefulPartitionedCall/sequential_1/mobilenetv2_1.00_224_1/block_6_depthwise_BN_1/batchnorm/mul", "shape": [192], "dtype": "float32"}, {"name": "StatefulPartitionedCall/sequential_1/mobilenetv2_1.00_224_1/block_6_depthwise_BN_1/batchnorm/sub", "shape": [192], "dtype": "float32"}, {"name": "StatefulPartitionedCall/sequential_1/mobilenetv2_1.00_224_1/block_6_project_1/convolution/Cast", "shape": [1, 1, 192, 64], "dtype": "float32"}, {"name": "StatefulPartitionedCall/sequential_1/mobilenetv2_1.00_224_1/block_6_project_BN_1/batchnorm/mul", "shape": [64], "dtype": "float32"}, {"name": "StatefulPartitionedCall/sequential_1/mobilenetv2_1.00_224_1/block_6_project_BN_1/batchnorm/sub", "shape": [64], "dtype": "float32"}, {"name": "StatefulPartitionedCall/sequential_1/mobilenetv2_1.00_224_1/block_7_expand_1/convolution/Cast", "shape": [1, 1, 64, 384], "dtype": "float32"}, {"name": "StatefulPartitionedCall/sequential_1/mobilenetv2_1.00_224_1/block_7_expand_BN_1/batchnorm/mul", "shape": [384], "dtype": "float32"}, {"name": "StatefulPartitionedCall/sequential_1/mobilenetv2_1.00_224_1/block_7_expand_BN_1/batchnorm/sub", "shape": [384], "dtype": "float32"}, {"name": "StatefulPartitionedCall/sequential_1/mobilenetv2_1.00_224_1/block_7_depthwise_1/depthwise/Cast", "shape": [3, 3, 384, 1], "dtype": "float32"}, {"name": "StatefulPartitionedCall/sequential_1/mobilenetv2_1.00_224_1/block_7_depthwise_BN_1/batchnorm/mul", "shape": [384], "dtype": "float32"}, {"name": "StatefulPartitionedCall/sequential_1/mobilenetv2_1.00_224_1/block_7_depthwise_BN_1/batchnorm/sub", "shape": [384], "dtype": "float32"}, {"name": "StatefulPartitionedCall/sequential_1/mobilenetv2_1.00_224_1/block_7_project_1/convolution/Cast", "shape": [1, 1, 384, 64], "dtype": "float32"}, {"name": "StatefulPartitionedCall/sequential_1/mobilenetv2_1.00_224_1/block_7_project_BN_1/batchnorm/mul", "shape": [64], "dtype": "float32"}, {"name": "StatefulPartitionedCall/sequential_1/mobilenetv2_1.00_224_1/block_7_project_BN_1/batchnorm/sub", "shape": [64], "dtype": "float32"}, {"name": "StatefulPartitionedCall/sequential_1/mobilenetv2_1.00_224_1/block_8_expand_1/convolution/Cast", "shape": [1, 1, 64, 384], "dtype": "float32"}, {"name": "StatefulPartitionedCall/sequential_1/mobilenetv2_1.00_224_1/block_8_expand_BN_1/batchnorm/mul", "shape": [384], "dtype": "float32"}, {"name": "StatefulPartitionedCall/sequential_1/mobilenetv2_1.00_224_1/block_8_expand_BN_1/batchnorm/sub", "shape": [384], "dtype": "float32"}, {"name": "StatefulPartitionedCall/sequential_1/mobilenetv2_1.00_224_1/block_8_depthwise_1/depthwise/Cast", "shape": [3, 3, 384, 1], "dtype": "float32"}, {"name": "StatefulPartitionedCall/sequential_1/mobilenetv2_1.00_224_1/block_8_depthwise_BN_1/batchnorm/mul", "shape": [384], "dtype": "float32"}, {"name": "StatefulPartitionedCall/sequential_1/mobilenetv2_1.00_224_1/block_8_depthwise_BN_1/batchnorm/sub", "shape": [384], "dtype": "float32"}, {"name": "StatefulPartitionedCall/sequential_1/mobilenetv2_1.00_224_1/block_8_project_1/convolution/Cast", "shape": [1, 1, 384, 64], "dtype": "float32"}, {"name": "StatefulPartitionedCall/sequential_1/mobilenetv2_1.00_224_1/block_8_project_BN_1/batchnorm/mul", "shape": [64], "dtype": "float32"}, {"name": "StatefulPartitionedCall/sequential_1/mobilenetv2_1.00_224_1/block_8_project_BN_1/batchnorm/sub", "shape": [64], "dtype": "float32"}, {"name": "StatefulPartitionedCall/sequential_1/mobilenetv2_1.00_224_1/block_9_expand_1/convolution/Cast", "shape": [1, 1, 64, 384], "dtype": "float32"}, {"name": "StatefulPartitionedCall/sequential_1/mobilenetv2_1.00_224_1/block_9_expand_BN_1/batchnorm/mul", "shape": [384], "dtype": "float32"}, {"name": "StatefulPartitionedCall/sequential_1/mobilenetv2_1.00_224_1/block_9_expand_BN_1/batchnorm/sub", "shape": [384], "dtype": "float32"}, {"name": "StatefulPartitionedCall/sequential_1/mobilenetv2_1.00_224_1/block_9_depthwise_1/depthwise/Cast", "shape": [3, 3, 384, 1], "dtype": "float32"}, {"name": "StatefulPartitionedCall/sequential_1/mobilenetv2_1.00_224_1/block_9_depthwise_BN_1/batchnorm/mul", "shape": [384], "dtype": "float32"}, {"name": "StatefulPartitionedCall/sequential_1/mobilenetv2_1.00_224_1/block_9_depthwise_BN_1/batchnorm/sub", "shape": [384], "dtype": "float32"}, {"name": "StatefulPartitionedCall/sequential_1/mobilenetv2_1.00_224_1/block_9_project_1/convolution/Cast", "shape": [1, 1, 384, 64], "dtype": "float32"}, {"name": "StatefulPartitionedCall/sequential_1/mobilenetv2_1.00_224_1/block_9_project_BN_1/batchnorm/mul", "shape": [64], "dtype": "float32"}, {"name": "StatefulPartitionedCall/sequential_1/mobilenetv2_1.00_224_1/block_9_project_BN_1/batchnorm/sub", "shape": [64], "dtype": "float32"}, {"name": "StatefulPartitionedCall/sequential_1/mobilenetv2_1.00_224_1/block_10_expand_1/convolution/Cast", "shape": [1, 1, 64, 384], "dtype": "float32"}, {"name": "StatefulPartitionedCall/sequential_1/mobilenetv2_1.00_224_1/block_10_expand_BN_1/batchnorm/mul", "shape": [384], "dtype": "float32"}, {"name": "StatefulPartitionedCall/sequential_1/mobilenetv2_1.00_224_1/block_10_expand_BN_1/batchnorm/sub", "shape": [384], "dtype": "float32"}, {"name": "StatefulPartitionedCall/sequential_1/mobilenetv2_1.00_224_1/block_10_depthwise_1/depthwise/Cast", "shape": [3, 3, 384, 1], "dtype": "float32"}, {"name": "StatefulPartitionedCall/sequential_1/mobilenetv2_1.00_224_1/block_10_depthwise_BN_1/batchnorm/mul", "shape": [384], "dtype": "float32"}, {"name": "StatefulPartitionedCall/sequential_1/mobilenetv2_1.00_224_1/block_10_depthwise_BN_1/batchnorm/sub", "shape": [384], "dtype": "float32"}, {"name": "StatefulPartitionedCall/sequential_1/mobilenetv2_1.00_224_1/block_10_project_1/convolution/Cast", "shape": [1, 1, 384, 96], "dtype": "float32"}, {"name": "StatefulPartitionedCall/sequential_1/mobilenetv2_1.00_224_1/block_10_project_BN_1/batchnorm/mul", "shape": [96], "dtype": "float32"}, {"name": "StatefulPartitionedCall/sequential_1/mobilenetv2_1.00_224_1/block_10_project_BN_1/batchnorm/sub", "shape": [96], "dtype": "float32"}, {"name": "StatefulPartitionedCall/sequential_1/mobilenetv2_1.00_224_1/block_11_expand_1/convolution/Cast", "shape": [1, 1, 96, 576], "dtype": "float32"}, {"name": "StatefulPartitionedCall/sequential_1/mobilenetv2_1.00_224_1/block_11_expand_BN_1/batchnorm/mul", "shape": [576], "dtype": "float32"}, {"name": "StatefulPartitionedCall/sequential_1/mobilenetv2_1.00_224_1/block_11_expand_BN_1/batchnorm/sub", "shape": [576], "dtype": "float32"}, {"name": "StatefulPartitionedCall/sequential_1/mobilenetv2_1.00_224_1/block_11_depthwise_1/depthwise/Cast", "shape": [3, 3, 576, 1], "dtype": "float32"}, {"name": "StatefulPartitionedCall/sequential_1/mobilenetv2_1.00_224_1/block_11_depthwise_BN_1/batchnorm/mul", "shape": [576], "dtype": "float32"}, {"name": "StatefulPartitionedCall/sequential_1/mobilenetv2_1.00_224_1/block_11_depthwise_BN_1/batchnorm/sub", "shape": [576], "dtype": "float32"}, {"name": "StatefulPartitionedCall/sequential_1/mobilenetv2_1.00_224_1/block_11_project_1/convolution/Cast", "shape": [1, 1, 576, 96], "dtype": "float32"}, {"name": "StatefulPartitionedCall/sequential_1/mobilenetv2_1.00_224_1/block_11_project_BN_1/batchnorm/mul", "shape": [96], "dtype": "float32"}, {"name": "StatefulPartitionedCall/sequential_1/mobilenetv2_1.00_224_1/block_11_project_BN_1/batchnorm/sub", "shape": [96], "dtype": "float32"}, {"name": "StatefulPartitionedCall/sequential_1/mobilenetv2_1.00_224_1/block_12_expand_1/convolution/Cast", "shape": [1, 1, 96, 576], "dtype": "float32"}, {"name": "StatefulPartitionedCall/sequential_1/mobilenetv2_1.00_224_1/block_12_expand_BN_1/batchnorm/mul", "shape": [576], "dtype": "float32"}, {"name": "StatefulPartitionedCall/sequential_1/mobilenetv2_1.00_224_1/block_12_expand_BN_1/batchnorm/sub", "shape": [576], "dtype": "float32"}, {"name": "StatefulPartitionedCall/sequential_1/mobilenetv2_1.00_224_1/block_12_depthwise_1/depthwise/Cast", "shape": [3, 3, 576, 1], "dtype": "float32"}, {"name": "StatefulPartitionedCall/sequential_1/mobilenetv2_1.00_224_1/block_12_depthwise_BN_1/batchnorm/mul", "shape": [576], "dtype": "float32"}, {"name": "StatefulPartitionedCall/sequential_1/mobilenetv2_1.00_224_1/block_12_depthwise_BN_1/batchnorm/sub", "shape": [576], "dtype": "float32"}, {"name": "StatefulPartitionedCall/sequential_1/mobilenetv2_1.00_224_1/block_12_project_1/convolution/Cast", "shape": [1, 1, 576, 96], "dtype": "float32"}, {"name": "StatefulPartitionedCall/sequential_1/mobilenetv2_1.00_224_1/block_12_project_BN_1/batchnorm/mul", "shape": [96], "dtype": "float32"}, {"name": "StatefulPartitionedCall/sequential_1/mobilenetv2_1.00_224_1/block_12_project_BN_1/batchnorm/sub", "shape": [96], "dtype": "float32"}, {"name": "StatefulPartitionedCall/sequential_1/mobilenetv2_1.00_224_1/block_13_expand_1/convolution/Cast", "shape": [1, 1, 96, 576], "dtype": "float32"}, {"name": "StatefulPartitionedCall/sequential_1/mobilenetv2_1.00_224_1/block_13_expand_BN_1/batchnorm/mul", "shape": [576], "dtype": "float32"}, {"name": "StatefulPartitionedCall/sequential_1/mobilenetv2_1.00_224_1/block_13_expand_BN_1/batchnorm/sub", "shape": [576], "dtype": "float32"}, {"name": "StatefulPartitionedCall/sequential_1/mobilenetv2_1.00_224_1/block_13_pad_1/Const", "shape": [4, 2], "dtype": "int32"}, {"name": "StatefulPartitionedCall/sequential_1/mobilenetv2_1.00_224_1/block_13_depthwise_1/depthwise/Cast", "shape": [3, 3, 576, 1], "dtype": "float32"}, {"name": "StatefulPartitionedCall/sequential_1/mobilenetv2_1.00_224_1/block_13_depthwise_BN_1/batchnorm/mul", "shape": [576], "dtype": "float32"}, {"name": "StatefulPartitionedCall/sequential_1/mobilenetv2_1.00_224_1/block_13_depthwise_BN_1/batchnorm/sub", "shape": [576], "dtype": "float32"}, {"name": "StatefulPartitionedCall/sequential_1/mobilenetv2_1.00_224_1/block_13_project_1/convolution/Cast", "shape": [1, 1, 576, 160], "dtype": "float32"}, {"name": "StatefulPartitionedCall/sequential_1/mobilenetv2_1.00_224_1/block_13_project_BN_1/batchnorm/mul", "shape": [160], "dtype": "float32"}, {"name": "StatefulPartitionedCall/sequential_1/mobilenetv2_1.00_224_1/block_13_project_BN_1/batchnorm/sub", "shape": [160], "dtype": "float32"}, {"name": "StatefulPartitionedCall/sequential_1/mobilenetv2_1.00_224_1/block_14_expand_1/convolution/Cast", "shape": [1, 1, 160, 960], "dtype": "float32"}, {"name": "StatefulPartitionedCall/sequential_1/mobilenetv2_1.00_224_1/block_14_expand_BN_1/batchnorm/mul", "shape": [960], "dtype": "float32"}, {"name": "StatefulPartitionedCall/sequential_1/mobilenetv2_1.00_224_1/block_14_expand_BN_1/batchnorm/sub", "shape": [960], "dtype": "float32"}, {"name": "StatefulPartitionedCall/sequential_1/mobilenetv2_1.00_224_1/block_14_depthwise_1/depthwise/Cast", "shape": [3, 3, 960, 1], "dtype": "float32"}, {"name": "StatefulPartitionedCall/sequential_1/mobilenetv2_1.00_224_1/block_14_depthwise_BN_1/batchnorm/mul", "shape": [960], "dtype": "float32"}, {"name": "StatefulPartitionedCall/sequential_1/mobilenetv2_1.00_224_1/block_14_depthwise_BN_1/batchnorm/sub", "shape": [960], "dtype": "float32"}, {"name": "StatefulPartitionedCall/sequential_1/mobilenetv2_1.00_224_1/block_14_project_1/convolution/Cast", "shape": [1, 1, 960, 160], "dtype": "float32"}, {"name": "StatefulPartitionedCall/sequential_1/mobilenetv2_1.00_224_1/block_14_project_BN_1/batchnorm/mul", "shape": [160], "dtype": "float32"}, {"name": "StatefulPartitionedCall/sequential_1/mobilenetv2_1.00_224_1/block_14_project_BN_1/batchnorm/sub", "shape": [160], "dtype": "float32"}, {"name": "StatefulPartitionedCall/sequential_1/mobilenetv2_1.00_224_1/block_15_expand_1/convolution/Cast", "shape": [1, 1, 160, 960], "dtype": "float32"}, {"name": "StatefulPartitionedCall/sequential_1/mobilenetv2_1.00_224_1/block_15_expand_BN_1/batchnorm/mul", "shape": [960], "dtype": "float32"}, {"name": "StatefulPartitionedCall/sequential_1/mobilenetv2_1.00_224_1/block_15_expand_BN_1/batchnorm/sub", "shape": [960], "dtype": "float32"}, {"name": "StatefulPartitionedCall/sequential_1/mobilenetv2_1.00_224_1/block_15_depthwise_1/depthwise/Cast", "shape": [3, 3, 960, 1], "dtype": "float32"}, {"name": "StatefulPartitionedCall/sequential_1/mobilenetv2_1.00_224_1/block_15_depthwise_BN_1/batchnorm/mul", "shape": [960], "dtype": "float32"}, {"name": "StatefulPartitionedCall/sequential_1/mobilenetv2_1.00_224_1/block_15_depthwise_BN_1/batchnorm/sub", "shape": [960], "dtype": "float32"}, {"name": "StatefulPartitionedCall/sequential_1/mobilenetv2_1.00_224_1/block_15_project_1/convolution/Cast", "shape": [1, 1, 960, 160], "dtype": "float32"}, {"name": "StatefulPartitionedCall/sequential_1/mobilenetv2_1.00_224_1/block_15_project_BN_1/batchnorm/mul", "shape": [160], "dtype": "float32"}, {"name": "StatefulPartitionedCall/sequential_1/mobilenetv2_1.00_224_1/block_15_project_BN_1/batchnorm/sub", "shape": [160], "dtype": "float32"}, {"name": "StatefulPartitionedCall/sequential_1/mobilenetv2_1.00_224_1/block_16_expand_1/convolution/Cast", "shape": [1, 1, 160, 960], "dtype": "float32"}, {"name": "StatefulPartitionedCall/sequential_1/mobilenetv2_1.00_224_1/block_16_expand_BN_1/batchnorm/mul", "shape": [960], "dtype": "float32"}, {"name": "StatefulPartitionedCall/sequential_1/mobilenetv2_1.00_224_1/block_16_expand_BN_1/batchnorm/sub", "shape": [960], "dtype": "float32"}, {"name": "StatefulPartitionedCall/sequential_1/mobilenetv2_1.00_224_1/block_16_depthwise_1/depthwise/Cast", "shape": [3, 3, 960, 1], "dtype": "float32"}, {"name": "StatefulPartitionedCall/sequential_1/mobilenetv2_1.00_224_1/block_16_depthwise_BN_1/batchnorm/mul", "shape": [960], "dtype": "float32"}, {"name": "StatefulPartitionedCall/sequential_1/mobilenetv2_1.00_224_1/block_16_depthwise_BN_1/batchnorm/sub", "shape": [960], "dtype": "float32"}, {"name": "StatefulPartitionedCall/sequential_1/mobilenetv2_1.00_224_1/block_16_project_1/convolution/Cast", "shape": [1, 1, 960, 320], "dtype": "float32"}, {"name": "StatefulPartitionedCall/sequential_1/mobilenetv2_1.00_224_1/block_16_project_BN_1/batchnorm/mul", "shape": [320], "dtype": "float32"}, {"name": "StatefulPartitionedCall/sequential_1/mobilenetv2_1.00_224_1/block_16_project_BN_1/batchnorm/sub", "shape": [320], "dtype": "float32"}, {"name": "StatefulPartitionedCall/sequential_1/mobilenetv2_1.00_224_1/Conv_1_1/convolution/Cast", "shape": [1, 1, 320, 1280], "dtype": "float32"}, {"name": "StatefulPartitionedCall/sequential_1/mobilenetv2_1.00_224_1/Conv_1_bn_1/batchnorm/mul", "shape": [1280], "dtype": "float32"}, {"name": "StatefulPartitionedCall/sequential_1/mobilenetv2_1.00_224_1/Conv_1_bn_1/batchnorm/sub", "shape": [1280], "dtype": "float32"}, {"name": "StatefulPartitionedCall/sequential_1/conv2d_1/convolution/Cast", "shape": [3, 3, 1280, 64], "dtype": "float32"}, {"name": "StatefulPartitionedCall/sequential_1/conv2d_1/Squeeze", "shape": [64], "dtype": "float32"}, {"name": "StatefulPartitionedCall/sequential_1/batch_normalization_1/batchnorm/mul", "shape": [64], "dtype": "float32"}, {"name": "StatefulPartitionedCall/sequential_1/batch_normalization_1/batchnorm/sub", "shape": [64], "dtype": "float32"}, {"name": "StatefulPartitionedCall/sequential_1/global_average_pooling2d_1/Mean/reduction_indices", "shape": [2], "dtype": "int32"}, {"name": "StatefulPartitionedCall/sequential_1/dense_1/Cast/Cast", "shape": [64, 256], "dtype": "float32"}, {"name": "StatefulPartitionedCall/sequential_1/dense_1/BiasAdd/Cast", "shape": [256], "dtype": "float32"}, {"name": "StatefulPartitionedCall/sequential_1/dense_1_2/Cast/ReadVariableOp", "shape": [256, 12], "dtype": "float32"}, {"name": "StatefulPartitionedCall/sequential_1/dense_1_2/BiasAdd/ReadVariableOp", "shape": [12], "dtype": "float32"}]}]}